q_network_medium.pth (torch, 352344 bytes, 7 tensors)

fc1.weight f4 [128, 600]
0	0xbdacb671	-0.084332354
1	0x3d5a7b19	0.05334005
2	0x3ddc71d4	0.107638985
3	0x3d095b7b	0.03353451
4	0x3e2a721b	0.1664509
5	0xbee8aaec	-0.45442903
6	0x3e5f1323	0.21784644
7	0x3f1acb8a	0.60466826
8	0xbe4ab4a0	-0.19795465
9	0x3e05791e	0.13034484
10	0xbd0c6108	-0.034272224
11	0xbecb1c30	-0.39669943
12	0x3e34cdd4	0.17656642
13	0xbf1143e7	-0.56744236
14	0xbe43b2e1	-0.19111206
15	0x3e431781	0.19051935
16	0x3ec591ba	0.38587743
17	0xbeb84564	-0.3599044
18	0x3e23b316	0.15986285
19	0x3db58fc1	0.088653095
20	0xbdb868e4	-0.09004381
21	0xbde1e3fe	-0.11029814
22	0x3f661b9a	0.89885867
23	0xbed4c3f7	-0.4155576
24	0x3ef890a6	0.48547858
25	0xbf10d382	-0.56572735
26	0xbe82b60f	-0.25529525
27	0xbef80ddc	-0.48448074
28	0xbceb532b	-0.028726181
29	0xbf194c02	-0.59881604
30	0x3d29af8a	0.041427173
31	0x3e08abc6	0.13346776
32	0xbe80e806	-0.2517702
33	0xbf538875	-0.8263009
34	0xbed51e9f	-0.41624925
35	0x3e49f27b	0.19721405
36	0x3e41f6ce	0.18941805
37	0xbe256fea	-0.16155973
38	0xbeb68195	-0.35645738
39	0x3effc66c	0.4995607
40	0x3e82563a	0.2545641
41	0xbe815e04	-0.2526704
42	0xbe3c8cbe	-0.18413064
43	0x3d3e410e	0.04644876
44	0x3e570679	0.20998563
45	0x3f21b787	0.63170666
46	0x3edfa0c1	0.43677333
47	0x3ea9b330	0.33144522
48	0x3e692aae	0.22770187
49	0x3ee7ac55	0.45248666
50	0x3e1b0321	0.15137912
51	0xbe593654	-0.21212131
52	0x3d65a7e4	0.056068316
53	0xbec97aa1	-0.3935137
54	0x3e382ef0	0.17986655
55	0x3ea47e68	0.3212769
56	0x3f2924c8	0.6607175
57	0xbe37b561	-0.17940284
58	0xbe3862fa	-0.18006507
59	0xbca264b3	-0.019823408
60	0xbeedb0c2	-0.46423918
61	0xbe99358a	-0.2992366
62	0xbedc4591	-0.43021825
63	0x3e400c9f	0.18754815
64	0xbc03549b	-0.008015777
65	0xbe1b9cf1	-0.15196587
66	0xbdfd970e	-0.12382327
67	0x3f055341	0.5208016
68	0xbd0c8437	-0.034305777
69	0xbf3d2e30	-0.738986
70	0xbe003f95	-0.12524255
71	0x3e04d43e	0.12971589
72	0x3ebf7f51	0.37401822
73	0xbeee6eee	-0.46569008
74	0xbeda96fa	-0.4269331
75	0x3f15ea35	0.58560497
76	0xbda1fd77	-0.07909673
77	0xbeb8622f	-0.36012408
78	0x3ead5822	0.33856302
79	0x3f6ae7f3	0.91760176
80	0x3d64f94f	0.05590182
81	0xbee32692	-0.44365364
82	0x3ea6cbe5	0.32577434
83	0x3f831e42	1.0243609
84	0x3d086c5a	0.033306457
85	0xbf027542	-0.5096017
86	0xbeab13dd	-0.33413592
87	0x3f274585	0.65340453
88	0x3f1c1e77	0.60983986
89	0xbec4f58e	-0.38468593
90	0x3f14c41f	0.5811176
91	0x3ef97be0	0.48727322
92	0xbf80bc45	-1.0057455
93	0x3e53cf42	0.20684531
94	0x3e9dd76a	0.3082841
95	0x3f33a7bd	0.70177823
96	0xbe597950	-0.21237683
97	0x3d8344a8	0.064095795
98	0xbf01c1a2	-0.50686085
99	0x3f425c44	0.75922036
100	0x3e78c49c	0.2429375
101	0x3eacdc59	0.33761862
102	0x3f8ba01f	1.090824
103	0x3e2f5495	0.17122109
104	0x3e0b8515	0.13624986
105	0xbdc5103a	-0.096222356
106	0x3e8290d4	0.2550112
107	0xbc131e56	-0.008979401
108	0xbf3d5c7c	-0.73969245
109	0x3f1926a7	0.59824604
110	0xbc8da708	-0.01729156
111	0x3ea9d79d	0.33172312
112	0xbef5f49c	-0.48038185
113	0xbe48163c	-0.19539732
114	0xbe0af6ec	-0.13570756
115	0xbd62b7ad	-0.055350948
116	0x3f2a9387	0.6663136
117	0x3e11b671	0.14229752
118	0x3f0e411f	0.55568117
119	0xbe554037	-0.20825277
120	0x3e805dda	0.25071603
121	0x3e006ace	0.12540743
122	0xbdb78b45	-0.089621104
123	0xbde293a0	-0.110633135
124	0xbf206e6b	-0.62668484
125	0x3f5230d6	0.8210577
126	0xbe1d5cb8	-0.153674
127	0xbda4dd3c	-0.080500096
128	0xbd9095df	-0.07059836
129	0x3f0aaae3	0.54167
130	0x3dccb725	0.099958695
131	0x3f2b874b	0.67003316
132	0x3d4ed73c	0.050498232
133	0xbe7015de	-0.23445842
134	0x3ec7aee0	0.39000607
135	0x3dda5f41	0.106626995
136	0xbe3aded8	-0.1824907
137	0x3e7374a7	0.23774968
138	0xbede373a	-0.4340151
139	0x3e8a56cb	0.27019343
140	0xbec4c55a	-0.38431817
141	0xbf420935	-0.757953
142	0xbf003fc2	-0.50097287
143	0x3df5fdb3	0.1201128
144	0xbd5f519e	-0.054521196
145	0xbead8fa7	-0.3389866
146	0xbd81ffa8	-0.06347591
147	0xbe90aa62	-0.28254992
148	0x3ecfdfe9	0.40600517
149	0xbeff80b8	-0.49902892
150	0x3dcee06d	0.101013996
151	0xbf5a9a95	-0.85392123
152	0xbef34a3d	-0.47517577
153	0xbdf8ad7f	-0.12142467
154	0xba9f46e8	-0.0012151869
155	0x3f07ae41	0.53000265
156	0xbf80afd1	-1.0053655
157	0xbe6828e6	-0.22671852
158	0xbdf23def	-0.11828219
159	0x3f37845d	0.71686345
160	0x3f0dd1cc	0.5539825
161	0x3e9636a1	0.29338554
162	0xbef83158	-0.48475146
163	0x3f666676	0.90000093
164	0xbea208a5	-0.3164722
165	0xbe95a019	-0.29223707
166	0xbe83a9df	-0.2571554
167	0x3d8897e0	0.06669593
168	0xbe9be6c0	-0.30449486
169	0x3eb4df70	0.3532672
170	0xbd9cce2c	-0.07656512
171	0x3e45a6b2	0.1930187
172	0x3dd2c072	0.10290612
173	0xbec91c48	-0.3927939
174	0xbd4068bf	-0.046974894
175	0xbeeb3932	-0.45942074
176	0x3e366ee4	0.17815739
177	0xbf3f30f4	-0.7468407
178	0x3cff3e0e	0.03115752
179	0x3c48a128	0.012245454
180	0xbd80f9b4	-0.06297627
181	0x3cdc4aae	0.026891079
182	0xbe9f1eff	-0.31078336
183	0x3e5f1c6f	0.2178819
184	0xbe1e3142	-0.15448478
185	0xbdcee82d	-0.10102878
186	0x3f36efaf	0.7145948
187	0x3f63d70a	0.89
188	0xbeaff818	-0.34368968
189	0xbf3ddccc	-0.74165034
190	0xbe6477f9	-0.22311391
191	0xbf096126	-0.5366386
192	0xbfa8b16d	-1.3179146
193	0x3d85d0e0	0.0653398
194	0x3e3edd40	0.18639088
195	0xbe74eb5c	-0.23917907
196	0xbde80724	-0.11329487
197	0xbf487760	-0.7830715
198	0x3e947370	0.28994322
199	0xbe66971c	-0.22518581
200	0xbe9db52b	-0.30802283
201	0x3df9fbec	0.122062534
202	0x3e847605	0.25871292
203	0x3d83214c	0.06402835
204	0xbf4ec2bc	-0.8076589
205	0x3ba7ad08	0.0051170625
206	0xbeeb435e	-0.45949835
207	0xbee38257	-0.4443538
208	0x3d30a282	0.04312373
209	0x3e3f4856	0.18679938
210	0xbe1ce324	-0.15321022
211	0xbef0b7e6	-0.47015303
212	0xbebd8de4	-0.37022316
213	0xbe20026b	-0.15625922
214	0xbe795db0	-0.24352145
215	0x3cf7dbab	0.030256113
216	0xbe97ea4f	-0.2967095
217	0xbf504e69	-0.81369644
218	0xbf6dcd7e	-0.9289168
219	0xbf2758c8	-0.65369844
220	0x3f826b24	1.0188947
221	0x3e150a94	0.14554816
222	0xbf543c65	-0.82904655
223	0xbe9d1bc1	-0.30685237
224	0xbe8cc57b	-0.27494416
225	0xbe81a361	-0.2531996
226	0x3e43ebf2	0.19132975
227	0xbeb1cdfd	-0.3472747
228	0xbe6a525c	-0.2288298
229	0x3eaa1f0b	0.3322681
230	0x3f1fa0de	0.6235484
231	0xbe646ac1	-0.22306348
232	0xbe81aeab	-0.25328574
233	0x3f17c89b	0.59290475
234	0xbd20afe3	-0.03923024
235	0x3f1ac416	0.60455453
236	0xbeb85326	-0.36000937
237	0x3e47b69a	0.1950325
238	0x3e5b1110	0.21393228
239	0xbf6ef89b	-0.9334809
240	0x38f69e40	0.000117596705
241	0xbe0bfd76	-0.13670906
242	0xbe8a5880	-0.27020645
243	0x3e944550	0.2895913
244	0x3e91d596	0.28483266
245	0xbefaadb8	-0.48960662
246	0xbd1cb29c	-0.038256273
247	0x3ebd5e8f	0.36986205
248	0xbe1e5f3f	-0.15466021
249	0xbdc9b80d	-0.09849558
250	0x3f081002	0.53149426
251	0x3f01640a	0.5054327
252	0x3e90af9f	0.28258988
253	0xbe829166	-0.25501555
254	0xbed3160d	-0.4122776
255	0xbf034f9d	-0.51293355

fc1.bias f4 [128]
0	0x3dd7c65a	0.105358794
1	0xbd07e066	-0.033172987
2	0xbba3ad0e	-0.004994995
3	0xbd0e0be1	-0.034679297
4	0x3e00dbd8	0.12583864
5	0xbcf9390c	-0.03042271
6	0xbd1e3e9e	-0.038633935
7	0xbd07d616	-0.033163153
8	0xbc899478	-0.016794428
9	0x3e096b8b	0.1341993
10	0x3de3d28d	0.11124144
11	0xbc9368d2	-0.017994318
12	0x3e224cd0	0.15849614
13	0xbc015e9c	-0.007896092
14	0x3dac96f1	0.08427227
15	0xbc74916e	-0.014927251
16	0xbd21f0bf	-0.039536234
17	0x3d3c5a64	0.04598464
18	0xbd0ef78e	-0.034904055
19	0x3e343ace	0.17600557
20	0xbc09b243	-0.008404317
21	0xbc9afe56	-0.018920105
22	0xbbd027cb	-0.0063524
23	0x3d9c56a7	0.07633715
24	0x3df464d5	0.11933295
25	0x3e0a7892	0.13522556
26	0x3e205e25	0.15660913
27	0x3ebd1e6c	0.36937273
28	0x3da32b64	0.079672605
29	0xbcc6e89e	-0.024280842
30	0x3b85a977	0.0040790397
31	0xbbe45adf	-0.0069688405
32	0xbca63b5d	-0.020291978
33	0xbc1479f5	-0.00906228
34	0xbb60e0a2	-0.003431358
35	0xbbe75551	-0.007059731
36	0xbccc29eb	-0.024922332
37	0xbd0890dd	-0.033341277
38	0xbc941866	-0.01807804
39	0x3e2b0862	0.16702417
40	0xbc6fac74	-0.014628518
41	0xbcec095f	-0.028813062
42	0xbcdcc392	-0.026948724
43	0xbd1bff59	-0.038085315
44	0xbbe9893e	-0.0071269562
45	0xbd169ad0	-0.036768734
46	0xbcd77205	-0.026299486
47	0xbc7f57a3	-0.015584859
48	0xbcd7337c	-0.026269667
49	0xbc061712	-0.008184211
50	0xbd10c4df	-0.035344
51	0xbcdec9df	-0.027195869
52	0x3e0eaae9	0.13932385
53	0xbd0eed7d	-0.034894455
54	0x3e461d67	0.19347154
55	0x3e5a53e2	0.21321061
56	0xbccc6aa0	-0.024953187
57	0x3e2369a0	0.15958261
58	0xbd061c6b	-0.032741945
59	0x3e3d9b3f	0.18516253
60	0xbd1481cc	-0.036256596
61	0xbc399624	-0.0113273
62	0xbcd1cf53	-0.025611555
63	0xbcc3dc7c	-0.023908846
64	0x3e135100	0.14386368
65	0xbc099609	-0.008397588
66	0xbd009515	-0.031392176
67	0xbbfe5994	-0.0077621434
68	0x3da5706f	0.08078086
69	0xbc9dca38	-0.019261464
70	0x3e44ccc5	0.19218738
71	0xbc14849d	-0.009064821
72	0xbcdfa3ae	-0.027299728
73	0xbc0ba692	-0.0085236
74	0xbb6d461f	-0.0036205126
75	0xbcf91562	-0.030405704
76	0xbcaa470a	-0.020785827
77	0xbbb24c23	-0.005441205
78	0xbcc4b322	-0.024011198
79	0xbcf1bf57	-0.029510183
80	0xbc5a433b	-0.013321693
81	0xbbe2ce91	-0.0069215973
82	0xbcffcb5a	-0.031224895
83	0xbcf93b48	-0.030423775
84	0xbcdfc1fe	-0.027314182
85	0xbd0c6d60	-0.034283996
86	0xbbc51145	-0.0060140216
87	0xbb50a35f	-0.0031835658
88	0x3b88b417	0.004171859
89	0xbb235038	-0.002491964
90	0xbd0b1e70	-0.033964574
91	0xbd1d69d0	-0.03843099
92	0xbc02407c	-0.007949945
93	0xbd346528	-0.044041783
94	0xbce28658	-0.02765195
95	0x3de15c36	0.11003916
96	0xbcdd7469	-0.027033048
97	0xbbeb97db	-0.0071897334
98	0xbc758961	-0.014986367
99	0xbd20c712	-0.03925235
100	0x3e05a554	0.13051349
101	0xbcc9a224	-0.024613447
102	0xbc493c53	-0.012282449
103	0xbd153f43	-0.036437284
104	0x3db11b74	0.086478144
105	0xbc53c484	-0.012925271
106	0x3d846f7d	0.06466577
107	0x3d9fe2d4	0.07806936
108	0xbc0c1b2a	-0.008551398
109	0xbc54ca15	-0.012987633
110	0xbd057cc0	-0.032589674
111	0x3e304b9f	0.17216347
112	0xbc0a7567	-0.008450842
113	0xbb9301e9	-0.0044863117
114	0xbcf64dcc	-0.030066393
115	0x3d94ff41	0.07275248
116	0xbbbe3023	-0.005804078
117	0xbc333c94	-0.010939736
118	0x3e261dae	0.1622226
119	0x3e4d7bf4	0.20066816
120	0x3e3d52e0	0.18488646
121	0xbbfd6f97	-0.00773425
122	0xbc751e3c	-0.014960822
123	0x3e3ae33f	0.1825075
124	0xbce3963a	-0.027781595
125	0x3e90acd2	0.2825685
126	0xbd1193c3	-0.035541307
127	0x3e3ab428	0.18232787

fc2.weight f4 [64, 128]
0	0x3b660b2c	0.0035101874
1	0x3cb1728d	0.021661067
2	0xbd59fae9	-0.053217802
3	0x3d2e5511	0.042561594
4	0xbdbac2c1	-0.091191776
5	0xbcb9d9d0	-0.022686869
6	0x3c333149	0.0109370435
7	0x3d7cf134	0.061753467
8	0xbda3bcff	-0.079950325
9	0xbd8bf0fc	-0.068330735
10	0xbdcde02c	-0.10052523
11	0x3d08e42e	0.033420734
12	0x3d66e78f	0.056373175
13	0x3d62abe9	0.055339728
14	0x3d0a2d5c	0.033734664
15	0x3daa1806	0.08305363
16	0xbd876d6f	-0.0661267
17	0xbd71e015	-0.059051592
18	0xbc9e7989	-0.019345062
19	0xbce048f7	-0.027378542
20	0xbcb64501	-0.0222497
21	0x3d101919	0.035180185
22	0x3d06c889	0.03290609
23	0xbd374951	-0.044747654
24	0xbca08134	-0.019592859
25	0x3c9f6a06	0.019459736
26	0x3da14e90	0.07876313
27	0x3e6f273d	0.23354812
28	0xbe0e6869	-0.13907017
29	0xbc42c5de	-0.0118879955
30	0xbe113e86	-0.14184007
31	0x3c9ef9af	0.019406168
32	0xbd5bc2ad	-0.053652454
33	0xbd92ce81	-0.07168294
34	0x3d24d1b6	0.04023906
35	0xbd5d6408	-0.054050475
36	0x3dad024c	0.08447704
37	0x3d51cc39	0.051220153
38	0x3da06dae	0.0783342
39	0x3da14500	0.07874489
40	0xbc8e61b2	-0.01738057
41	0x3d8861b9	0.06659264
42	0xbd2611cd	-0.04054432
43	0x3d947386	0.07248597
44	0xbd93c56d	-0.0721539
45	0xbd2a0699	-0.0415102
46	0x3c0b16d9	0.008489334
47	0x3d9d41f7	0.076785974
48	0xbd9c1f5f	-0.07623171
49	0x3c52d62c	0.012868445
50	0x3d6fa86b	0.058510225
51	0xbd132a68	-0.035929114
52	0x3caf5064	0.021400638
53	0xbd1c8b30	-0.038218677
54	0xbc686d1b	-0.014186169
55	0x39eb4090	0.00044870796
56	0xbc79b6c8	-0.015241332
57	0x3d960677	0.07325452
58	0x3da8ffeb	0.082519375
59	0x3d6418e3	0.055687796
60	0xbd8e44af	-0.06946694
61	0xbdb3ff63	-0.087889455
62	0xbd8b3694	-0.06797519
63	0xbc3d5689	-0.011556276
64	0xbd37803d	-0.044800032
65	0x3d9b78e6	0.07591419
66	0xbcfeb990	-0.031094342
67	0x3d6d94a6	0.05800309
68	0xbe0579b0	-0.13034701
69	0xbcb5cea1	-0.022193255
70	0x3d9163dd	0.070991255
71	0x3d431630	0.04762858
72	0x3cbfee60	0.023429096
73	0xbc43d75f	-0.011953204
74	0x3d30f6c3	0.04320408
75	0x3d17525f	0.03694379
76	0x3d84c997	0.06483763
77	0xbc89b6d1	-0.016810806
78	0xbdaa84aa	-0.08326085
79	0x3ce14acf	0.027501492
80	0x3cf826ac	0.030291878
81	0x3b879c00	0.0041384697
82	0xbc4d34ff	-0.012524842
83	0xbd5ac0ca	-0.053406514
84	0xbd8d7d7d	-0.069087006
85	0xbddd6a0d	-0.10811243
86	0xbdb87e60	-0.09008479
87	0x3d47f367	0.04881611
88	0xbd250c65	-0.040295023
89	0x3d008748	0.031379014
90	0xbc9c7f0e	-0.019103553
91	0xbd89e6cb	-0.067334734
92	0x3c9dbbc7	0.019254578
93	0xbd5095f1	-0.050924245
94	0xbcc8baaa	-0.02450307
95	0xbdd62d92	-0.104579106
96	0x3d2366f5	0.03989311
97	0xbd9565af	-0.07294785
98	0x3d472e33	0.048628043
99	0x3d6352fd	0.055499066
100	0xbdb02f8d	-0.086028196
101	0xbca0e10f	-0.019638566
102	0xbd83efed	-0.064422466
103	0xbdad5e45	-0.08465246
104	0x3bc298f8	0.0059386455
105	0x3cf86f6a	0.030326564
106	0x3c88ddac	0.016707264
107	0xbd0dfa93	-0.034662794
108	0x3c10a56c	0.008828502
109	0xbbde45db	-0.0067832298
110	0x3d78f1ec	0.06077759
111	0xbd37de2c	-0.044889614
112	0xbd10796c	-0.035272047
113	0xbcdf5ec5	-0.02726687
114	0x3bf18ee0	0.0073717684
115	0xbe0eaa1f	-0.13932084
116	0xbdb903a4	-0.090338975
117	0xbd6f218c	-0.058381602
118	0x3d9aad38	0.0755257
119	0x3d902f89	0.070403166
120	0x3ba64e96	0.005075286
121	0xbd163541	-0.03667188
122	0x3b8ff816	0.004393588
123	0xbc22d126	-0.00993756
124	0xbc6a80ca	-0.014312932
125	0x3e335529	0.17512955
126	0x3d8364cb	0.06415709
127	0x3d7e1742	0.0620339
128	0xbdff4278	-0.1246385
129	0xbdac8285	-0.08423332
130	0x3c0575c4	0.008145753
131	0xbd86e882	-0.06587316
132	0x3c44224e	0.0119710695
133	0xbd86fde8	-0.065913975
134	0x3d0c6fa4	0.034286156
135	0xbbdeb8d9	-0.006796938
136	0x3d72de10	0.059293807
137	0x3d0e3717	0.034720507
138	0xbd7728a5	-0.060341496
139	0x3d965ce3	0.073419355
140	0x3cf1528e	0.02945831
141	0xbbce9aac	-0.0063050594
142	0xbe2460d8	-0.16052568
143	0x3d3a22f1	0.04544348
144	0x3dae09e4	0.0849798
145	0xbda203fb	-0.079109155
146	0xbba4b248	-0.0050261356
147	0xbc581242	-0.013187947
148	0x3d96be2d	0.07360492
149	0x3cd77451	0.026300581
150	0xbd5a2c9e	-0.053265207
151	0xbe02618c	-0.12732524
152	0xbc2e8389	-0.010651478
153	0xbdc3d635	-0.09562341
154	0xbda0f2fe	-0.07858847
155	0x3e4e898c	0.20169657
156	0xbd96ee4d	-0.07369671
157	0xbe14a21a	-0.14514962
158	0xbe435537	-0.19075476
159	0xbdb33c9a	-0.08751793
160	0x3d913e0e	0.07091914
161	0x3bf9313a	0.007604745
162	0x3dbde9e4	0.09273127
163	0x3db113f4	0.08646384
164	0xbd0e8bc8	-0.034801275
165	0xbd96fbfb	-0.0737228
166	0x3cf8d0ee	0.030373063
167	0xbc577049	-0.013149329
168	0x3d110f0f	0.03541475
169	0x3d920032	0.071289435
170	0xbd11f4ed	-0.03563397
171	0x3dae0751	0.08497489
172	0x3db3a667	0.08771973
173	0xbc7ef7f7	-0.015562049
174	0x3d067efc	0.032835945
175	0xbd2bfcad	-0.041989017
176	0xbd57ae33	-0.052656364
177	0x3d28dec0	0.041228056
178	0x3d37361e	0.044729345
179	0x3d33edf6	0.04392811
180	0xbd28c387	-0.041202094
181	0xbca1b54d	-0.019739771
182	0xbcf10dfd	-0.029425615
183	0xbd5b5d63	-0.053555857
184	0xbae84af9	-0.0017722539
185	0xbda553e7	-0.08072644
186	0xbd137aaa	-0.036005653
187	0xbd8ed35a	-0.06973906
188	0xbbe7f53c	-0.0070787948
189	0xbd9b8af7	-0.07594865
190	0x3d621f3c	0.05520557
191	0xbcd83e16	-0.026396792
192	0x3cfb2f95	0.030662337
193	0xbd8140bd	-0.06311176
194	0xbaf409f2	-0.0018618687
195	0xbd856372	-0.06513108
196	0xbdda199a	-0.10649414
197	0xbd48d0b2	-0.049027152
198	0x3ce2fe42	0.02770913
199	0x3dba3cfd	0.09093664
200	0x3c3a5189	0.011371979
201	0x3d7daba6	0.061931275
202	0xbd02f035	-0.03196736
203	0xbc2e587e	-0.010641215
204	0xbdac5774	-0.08415118
205	0x3d36f506	0.044667266
206	0xbe08293d	-0.13296981
207	0x3d53f4ff	0.05174732
208	0xbc2d726a	-0.0105863605
209	0x3c476f4f	0.012172534
210	0xbde02771	-0.10945023
211	0x3c0699ab	0.008215348
212	0x3d99a0ee	0.07501398
213	0xbd8bcb19	-0.06825847
214	0xbc459e07	-0.012061602
215	0xbdb0624d	-0.086124994
216	0xbe14ad57	-0.14519249
217	0xbb279db7	-0.0025576183
218	0xbd57f8cd	-0.05272751
219	0xbdab92c5	-0.083776034
220	0x3d98fea4	0.07470444
221	0xb9161c63	-0.0001431569
222	0xbdad9f9b	-0.08477708
223	0xbe199ade	-0.15000483
224	0xbcfdfe45	-0.031005034
225	0x3d38bbf4	0.04510112
226	0x3d3f5196	0.046708666
227	0xbd9be9eb	-0.07612976
228	0xbccbda57	-0.024884386
229	0xbd9873be	-0.07443951
230	0xbd90bc32	-0.070671454
231	0x3d223d03	0.039608967
232	0xbe101d90	-0.14073777
233	0x3da383a5	0.079840936
234	0xbcb1e29e	-0.021714505
235	0xbdbba753	-0.09162774
236	0xbd1afc34	-0.037838176
237	0x3cd8cebc	0.026465766
238	0x3daec6dc	0.08534023
239	0xbcbf56c9	-0.023356812
240	0x3bcaaa01	0.006184817
241	0x3d99d73d	0.075117566
242	0x3c0b51fb	0.008503432
243	0xbe26c42c	-0.16285771
244	0xbd6e0c35	-0.05811711
245	0xbd8e92ae	-0.06961571
246	0x3d315acb	0.043299478
247	0x3ce783c5	0.028261075
248	0x3d24998f	0.040185507
249	0x3d5c0b4d	0.053721715
250	0xbd25e984	-0.0405059
251	0x3d67fbaf	0.05663651
252	0x3d9d756f	0.07688414
253	0x3e480c33	0.19535904
254	0x3d84ea69	0.06490023
255	0xbaacf56c	-0.00131957

fc2.bias f4 [64]
0	0x3ec96333	0.39333495
1	0x3eae5327	0.34047815
2	0xbd2c608c	-0.04208426
3	0xbd8c9017	-0.068634205
4	0xbd2a7f0a	-0.04162506
5	0x3ec67e33	0.38768157
6	0xbd9dbe2a	-0.077022865
7	0xbb90364f	-0.0044010053
8	0xbbbbd5f6	-0.0057322932
9	0x3ee7b238	0.45253158
10	0xbda10674	-0.07862559
11	0xbd97e28b	-0.074162565
12	0xbcc421e8	-0.023941949
13	0xbbc8fc89	-0.00613362
14	0xbd0a3553	-0.03374226
15	0x3ef46869	0.4773591
16	0x3dd423ca	0.10358389
17	0xbc05439a	-0.008133793
18	0x3e432d7e	0.19060323
19	0x3d48f7cf	0.049064454
20	0x3f09795c	0.53700805
21	0xbd99c565	-0.07508353
22	0xbd05e790	-0.03269154
23	0x3d51f030	0.05125445
24	0xbcce30dd	-0.025169784
25	0x3bb52490	0.00552804
26	0xbbba3e00	-0.0056836605
27	0x3f1295f6	0.5726007
28	0xbcd97dbe	-0.026549216
29	0xbd99f43b	-0.075172864
30	0x3b301c63	0.0026872389
31	0x3ee65194	0.44984114
32	0xbd92e618	-0.07172793
33	0xbb375460	-0.0027973875
34	0x3ee51a58	0.4474666
35	0xbcaaba34	-0.020840742
36	0xbd929818	-0.07157916
37	0x3e9dcbc5	0.30819526
38	0xbd3f1a30	-0.046655834
39	0x3efd78b2	0.49506146
40	0xbd6178e2	-0.055046923
41	0xbd93efe6	-0.07223491
42	0xbd85b83b	-0.0652928
43	0x3be1c880	0.0068903565
44	0xbd1f71a6	-0.038926743
45	0x3ec996b1	0.3937278
46	0x3c5cf468	0.013486005
47	0xbd72eb64	-0.059306517
48	0xbdd2784d	-0.10276852
49	0x3cd20a02	0.025639538
50	0xbd3fba31	-0.046808425
51	0xbc69039e	-0.014222054
52	0x3ce11ba5	0.027479002
53	0xbd8c7f98	-0.06860274
54	0x3f0421be	0.51613986
55	0xbd78e7e6	-0.06076803
56	0x3f02c726	0.51085126
57	0x3ef15cf6	0.47141236
58	0xbda91351	-0.082556374
59	0xbb72a5c3	-0.0037025071
60	0xbd33a89a	-0.043861963
61	0xbdbc17ad	-0.09184203
62	0x3eac98e1	0.33710387
63	0xbd367b0b	-0.044550937

fc3.weight f4 [32, 64]
0	0x3d43faeb	0.047846716
1	0xbd894dce	-0.06704293
2	0xbd617e08	-0.055051833
3	0xbda7b448	-0.08188683
4	0xbdd8280c	-0.10554513
5	0xbceac77b	-0.028659573
6	0xbdbc6778	-0.091994226
7	0xbc73ab30	-0.014872357
8	0xbd5d4a5d	-0.054025996
9	0xbd9d9fa3	-0.07696464
10	0xbde20d90	-0.11037743
11	0x3dec404e	0.11535703
12	0x3d0f7808	0.03502658
13	0x3cb8d8f0	0.022564381
14	0x3b70c280	0.0036737025
15	0x3d084435	0.033268172
16	0x3c7f3cd0	0.015578464
17	0x3cf62f88	0.030051962
18	0xbe0ff7fb	-0.14059441
19	0x3cb77b98	0.022397801
20	0xbdc05ca0	-0.09392667
21	0x3dd7f112	0.105440274
22	0x3c6dd860	0.01451692
23	0x3c89c2dd	0.01681655
24	0x3dd80fbc	0.10549876
25	0xbdf0476f	-0.11732375
26	0xbd402eec	-0.04691975
27	0xbdb76af6	-0.08955948
28	0xbd4f2aa0	-0.05057776
29	0xbd02da18	-0.03194627
30	0xbdadff30	-0.08495939
31	0xbdb9fc1d	-0.0908129
32	0xbce31bf8	-0.027723297
33	0xbdd290ce	-0.102815256
34	0x3d873815	0.06602494
35	0xbc9e0a90	-0.019292146
36	0x3dd88e64	0.10574034
37	0xbd250c78	-0.040295094
38	0x3c33c2e0	0.010971755
39	0xbd90f293	-0.07077517
40	0xbddc0fa0	-0.10745168
41	0x3df1db72	0.11809434
42	0xbd49e8e4	-0.049294367
43	0xbde2c926	-0.11073522
44	0x3de92278	0.113835275
45	0x3d098b0a	0.033579864
46	0x3dc4969b	0.09599038
47	0xbdf14624	-0.117809564
48	0x3df5ccfc	0.12001988
49	0xbdc5e7e0	-0.09663367
50	0xbdc42cd8	-0.09578866
51	0xbc1148e0	-0.008867472
52	0xbd23f9a7	-0.04003301
53	0xbc29db00	-0.010367155
54	0xbc919c78	-0.017774805
55	0x3d57e710	0.052710593
56	0x3d74a262	0.059725173
57	0xbe197c02	-0.14988711
58	0x3dad9c42	0.084770694
59	0x3d0b9038	0.034073085
60	0x3d80f896	0.06297414
61	0xbcbf1c88	-0.023329034
62	0xbde641c6	-0.11243014
63	0xbdb242da	-0.08704157
64	0x3d990410	0.07471478
65	0xbc2a04e0	-0.010377139
66	0x3d99c798	0.075087726
67	0xbd8217e8	-0.06352216
68	0xbc7072c0	-0.014675796
69	0xbcecf598	-0.028925702
70	0xbcfeadd8	-0.031088755
71	0x3d74aebc	0.059736952
72	0x3da617e0	0.081100225
73	0xbdd5bfc8	-0.1043697
74	0x3d1427e8	0.03617087
75	0x3d98efac	0.07467589
76	0xbd45126c	-0.04811327
77	0x3cc90068	0.024536327
78	0x3d3313e4	0.04372014
79	0xbd9db348	-0.07700211
80	0x3dad7a88	0.084706366
81	0xbcff8ee0	-0.031196058
82	0x3ddd769c	0.108136386
83	0x3da07cf4	0.07836333
84	0xbd1b2220	-0.03787434
85	0xbd645228	-0.055742413
86	0x3df8baf0	0.121450305
87	0xbda42c2e	-0.08016239
88	0x3d86cf26	0.06582479
89	0xbdf248d8	-0.118303
90	0x3d83e4f8	0.06440157
91	0xbd9b7b76	-0.07591908
92	0x3d6645bc	0.056218848
93	0xbc12d110	-0.008960977
94	0x3d57eb68	0.052714735
95	0xbcd84588	-0.026400343
96	0xbc9b9658	-0.018992588
97	0xbd835dcc	-0.06414375
98	0xbd3c3664	-0.04595031
99	0xbd3be800	-0.04587555
100	0x3d8f28ec	0.06990227
101	0xbd91e60c	-0.07123956
102	0x3dcce7ce	0.10005151
103	0xbd6bb55c	-0.057546005
104	0xbd218cc8	-0.0394409
105	0xbc569680	-0.013097405
106	0x3da472a2	0.08029677
107	0xbdf24e4c	-0.1183134
108	0xbd599f1c	-0.053130254
109	0xbdefe97a	-0.11714454
110	0xbc7207f0	-0.0147724
111	0x3c443a30	0.011976764
112	0x3c79e940	0.015253365
113	0x3d8910f0	0.06692684
114	0x3c9e8d10	0.019354373
115	0x3d80f892	0.06297411
116	0xbcf38938	-0.029728517
117	0xbde6f55a	-0.11277266
118	0x3d942204	0.072330505
119	0xbd06f100	-0.03294468
120	0x3d8baa1a	0.06819554
121	0x3d607c64	0.05480613
122	0xbc655300	-0.0139968395
123	0x3d4ac6a8	0.04950586
124	0xbdc9716c	-0.09836087
125	0xbd2854c4	-0.041096464
126	0xbdd6d792	-0.104903355
127	0xbd9e30e6	-0.077241704
128	0x3dae1aad	0.08501182
129	0xbd570e03	-0.052503597
130	0x3dac2e56	0.084072754
131	0xbc936fd0	-0.017997652
132	0x3de7dcca	0.11321409
133	0xbd5106a8	-0.05103174
134	0x3ded77ee	0.115951404
135	0xbc0e2f80	-0.008678317
136	0xbd899c90	-0.06719315
137	0x3df352ce	0.11881028
138	0x3b024640	0.0019878298
139	0xbd55eeac	-0.05222957
140	0x3dccca80	0.09999561
141	0xbd060278	-0.032717198
142	0xbd502acc	-0.050822064
143	0x3d4dde4a	0.05026082
144	0x3d29d9ea	0.041467585
145	0x3dbf84b6	0.093514845
146	0x3dfec386	0.12439637
147	0x3dfbc84a	0.122940615
148	0xbd69cbea	-0.057079233
149	0xbc89aa68	-0.016804889
150	0xbd0720fc	-0.03299044
151	0x3d711ca0	0.05886519
152	0x3cf291c0	0.029610515
153	0x3d50cc48	0.050976068
154	0x3df36eac	0.11886343
155	0x3dd71a7b	0.105030976
156	0xbbd020c0	-0.0063515604
157	0x3cd307f0	0.02576062
158	0x3d406eb4	0.046980575
159	0xbdaf3461	-0.08554912
160	0xbdbff2ac	-0.09372458
161	0x3dd78c06	0.10524754
162	0x39068a6b	0.000128308
163	0xbd26c328	-0.04071346
164	0x3deb78ae	0.11497627
165	0xbb93b01c	-0.004507078
166	0xbb68ad80	-0.0035503805
167	0x3b6613c0	0.0035106987
168	0xbdf39738	-0.11894077
169	0xbd4b6444	-0.049656168
170	0xbdf4d574	-0.119547755
171	0x3dd50684	0.104016334
172	0xbd333de0	-0.04376018
173	0x3cc85781	0.024455788
174	0xbdbe2e86	-0.092862174
175	0x3df2afb8	0.11849922
176	0x3dc8186c	0.09770283
177	0x3c44a9a0	0.012003332
178	0x3db3c1d2	0.08777203
179	0x3d8eb2d8	0.069677055
180	0xbdffbc0c	-0.12487039
181	0xbdfb14dc	-0.12259838
182	0xbed07a29	-0.407182
183	0xbd99fe8e	-0.075192556
184	0x3b304720	0.0026897863
185	0xbd8a2486	-0.067452475
186	0xbd413dc4	-0.047178045
187	0x3ab17f00	0.0013541877
188	0xbd22c83c	-0.03974174
189	0x3da53365	0.08066443
190	0x3df72fa6	0.12069635
191	0xbd0aed7c	-0.03391789
192	0x3d6e35ec	0.058156893
193	0x3e2b2346	0.16712674
194	0xbc8fbe7b	-0.017546883
195	0xbdbd6eac	-0.092496246
196	0x3c2593b0	0.010106012
197	0xbcf56532	-0.02995548
198	0xbcbc6bb0	-0.023000568
199	0x3dfbbdf0	0.12292087
200	0xbcbe9bc8	-0.023267642
201	0x3dfacea6	0.12246446
202	0xbcd19158	-0.025582
203	0x3a39ae00	0.0007083118
204	0xbd51e318	-0.051241964
205	0xbdca3ba8	-0.0987466
206	0x3c63ade7	0.013896442
207	0x3e413c79	0.18870725
208	0xbe0ec8e2	-0.13943818
209	0xbdd9aedc	-0.10629055
210	0x3d52544e	0.05134993
211	0x3b10f070	0.0022115968
212	0x3e8fbfab	0.2807592
213	0xbdde665e	-0.10859369
214	0x3db10f70	0.086455226
215	0xbda20562	-0.07911183
216	0x3d393c8b	0.045223754
217	0x3d4b6c19	0.049663637
218	0xbd9008bc	-0.07032916
219	0x3eb1977f	0.34685895
220	0x3cf70478	0.030153498
221	0x3d56eee0	0.052473903
222	0xbd927a12	-0.07152189
223	0x3e336e50	0.1752255
224	0x3d4b8f62	0.049697287
225	0xbd1cba50	-0.03826362
226	0x3e4011dd	0.18756814
227	0xbd9712bc	-0.0737662
228	0x3d533058	0.051559776
229	0x3d95bbe9	0.07311232
230	0xbdffeaf0	-0.12495983
231	0x3e62452e	0.22096702
232	0xbd8bfa26	-0.068348214
233	0x3db02c1a	0.08602162
234	0x3d4e34e8	0.050343424
235	0x3dcbc04e	0.099487886
236	0x3d4dbdd8	0.050229877
237	0x3d3df466	0.046375655
238	0x3d1d26a7	0.03836694
239	0xbd161e3b	-0.036649924
240	0x3d1c8af1	0.038218442
241	0xbd3a07fc	-0.04541777
242	0x3d6f3580	0.05840063
243	0xbdc3e626	-0.09565382
244	0x3dce8334	0.10083619
245	0x3da54f3a	0.08071752
246	0x3ec871c4	0.39149296
247	0xbdc82e56	-0.09774463
248	0x3e3bc0d3	0.18335275
249	0x3e6786b3	0.22609977
250	0x3d4d8284	0.050173298
251	0xbd367176	-0.0445418
252	0xbdf94f1a	-0.121732906
253	0xbd1b1855	-0.037865
254	0x3e4ad992	0.19809559
255	0x3df7a77c	0.12092492

fc3.bias f4 [32]
0	0x3c9491f3	0.018136
1	0xbc8f5190	-0.017494947
2	0xbe10a64b	-0.14125936
3	0x3f43f1d3	0.7654087
4	0x3c737e3c	0.01486164
5	0xbdddbce0	-0.10827041
6	0xbc8da4f1	-0.017290564
7	0xba38a3e0	-0.0007043462
8	0x3f3b25d7	0.73104614
9	0xbddb3284	-0.107029945
10	0x3f2c7e89	0.6738058
11	0xbde05e14	-0.10955444
12	0x3d8221c7	0.06354099
13	0x3f3482ff	0.70512384
14	0x3c20e3ed	0.009819967
15	0xbe19cb69	-0.15019001
16	0x3f4167a8	0.7554879
17	0x3d171359	0.036883686
18	0xbdbfe258	-0.093693435
19	0xbd418d65	-0.047253985
20	0x3db63195	0.08896176
21	0xbdf6c5a4	-0.12049416
22	0x3f16c9bf	0.5890159
23	0xbdefa6ca	-0.11701734
24	0xbda8c9fa	-0.08241649
25	0x3f27df01	0.6557465
26	0x3f44e898	0.7691741
27	0x3d64559f	0.055745717
28	0x3db28ae2	0.08717896
29	0xbce21a40	-0.027600408
30	0xbbf4e489	-0.0074735326
31	0x3e1b4ed3	0.15166788

output.weight f4 [1, 32]
0	0x3d7110d0	0.058853924
1	0x3d208dff	0.039197918
2	0xbcb9b6a3	-0.022670096
3	0xbe63eae8	-0.22257578
4	0x3e07ba57	0.13254677
5	0x3e14e15c	0.14539093
6	0xbce9b078	-0.02852653
7	0x3d1090c0	0.035294294
8	0xbe5da58a	-0.2164518
9	0x3a32aeee	0.00068162277
10	0xbe60d889	-0.21957602
11	0xbc9f43c3	-0.019441491
12	0x3e07b6d5	0.13253339
13	0xbe1c369b	-0.15255205
14	0x3e0a6f8e	0.13519117
15	0x3df4ec2f	0.11959111
16	0xbe34c881	-0.17654611
17	0x3dd25311	0.1026975
18	0x3cc0c3f3	0.023530936
19	0x3b912887	0.00442988
20	0x3abace60	0.0014252178
21	0x3d909740	0.07060099
22	0xbe75e511	-0.24013163
23	0xbe00d08b	-0.12579553
24	0xbe18d642	-0.14925483
25	0xbe1d1912	-0.15341595
26	0xbec0a46c	-0.37625444
27	0x3da6ed30	0.08150709
28	0x3e0533b9	0.13008012
29	0x3e1eba3e	0.15500733
30	0x3b4ba9a2	0.003107645
31	0xba58f4be	-0.00082762155
