q_network_experiment2.pth (torch, 352344 bytes, 7 tensors)

fc1.weight f4 [128, 600]
0	0x3cdfb864	0.027309604
1	0x3d1cf8ac	0.03832309
2	0xbc16307a	-0.009166831
3	0x3d1f167c	0.038839802
4	0x3d0cc2fc	0.03436564
5	0x3c214937	0.009844116
6	0xbc85fde1	-0.01635641
7	0x3b1890ca	0.002327966
8	0x3ce337e4	0.027736612
9	0xbcd80439	-0.026369201
10	0xbb9ce0b1	-0.0047875275
11	0x3d017716	0.03160771
12	0x3c32c044	0.0109100975
13	0xbb99ae1d	-0.0046899454
14	0xbc9c0a1e	-0.019047793
15	0x3a919966	0.0011108338
16	0x3cd512f4	0.026010014
17	0xbc5b0445	-0.013367717
18	0x3c186ffc	0.009304043
19	0x3a475a4e	0.0007604704
20	0x3cd3fd0f	0.025877504
21	0xbd1faa64	-0.038980857
22	0xbcf839dc	-0.030301027
23	0x3c812ee1	0.015769424
24	0x3c26244f	0.010140493
25	0xbb90b8c7	-0.0044165584
26	0xbba10791	-0.004914232
27	0x3c89b812	0.016811404
28	0x3cf2f355	0.029657045
29	0xbb8656cc	-0.0040997025
30	0x3d2470cd	0.040146638
31	0xb9d875fe	-0.00041286641
32	0xbcd6d23e	-0.026223298
33	0xbba9e397	-0.0051846015
34	0xbcdf7f80	-0.027282476
35	0xbcfa4bd1	-0.03055373
36	0xbce48cd2	-0.02789918
37	0xbd0ba2b9	-0.03409073
38	0xbc03819b	-0.008026506
39	0xbbb64750	-0.0055627003
40	0x3a96e6e7	0.0011512906
41	0x3bec530d	0.007212049
42	0x3cec3b50	0.028836876
43	0xbcecf2d7	-0.028924389
44	0xbd0f31a3	-0.034959447
45	0xbb39d7a0	-0.0028357282
46	0x3c80b367	0.015710546
47	0xbc6c7ac1	-0.014433564
48	0xbcb1ca2a	-0.021702845
49	0x3d0c2d91	0.034223143
50	0x3cd72dd8	0.026266977
51	0xbc326911	-0.010889308
52	0xbcebd940	-0.028790116
53	0x3cfa93d0	0.03058806
54	0x3d1e3c81	0.03863192
55	0x3d1c2983	0.038125526
56	0x3c9b04b2	0.018923137
57	0xbcc0f994	-0.023556508
58	0xb9037b42	-0.0001253905
59	0x3ccbc497	0.024874015
60	0x3c06265c	0.0081878565
61	0xbcb1cf15	-0.02170519
62	0x3c0da9e2	0.00864646
63	0xbd14cf7f	-0.036330696
64	0x3d2284b5	0.03967734
65	0xbca4e797	-0.020129962
66	0x3d091a1b	0.03347216
67	0x3c1044bc	0.00880545
68	0xbccbfaee	-0.024899926
69	0xbb9ae219	-0.00472666
70	0xbcd2591b	-0.025677254
71	0x3bf8bbd6	0.007590751
72	0x3cdd8653	0.02704159
73	0x3cd8dc71	0.026472302
74	0x3ccbd654	0.024882473
75	0xbc1310a9	-0.00897614
76	0x3d222586	0.039586566
77	0xbc0674e2	-0.008206578
78	0xbc6ea02d	-0.014564556
79	0x3c302ab3	0.010752368
80	0xbbc008da	-0.00586043
81	0x3cef79ec	0.029232942
82	0x3b67a1fc	0.0035344353
83	0x3d0f4620	0.034978986
84	0x3d1a4e16	0.037672125
85	0xbd027d86	-0.03185799
86	0xbca626dc	-0.020282201
87	0x3bc7d69e	0.0060985824
88	0xbc17be18	-0.0092616305
89	0x3c13fcfe	0.009032486
90	0x3d215db6	0.03939601
91	0x3d04e0eb	0.03244106
92	0x3d0acecb	0.03388862
93	0xbc103287	-0.008801109
94	0xbd0d596a	-0.0345091
95	0xbb4188da	-0.0029531033
96	0x3c00b975	0.007856716
97	0xbcef9034	-0.029243566
98	0xbbc57939	-0.0060264138
99	0x3cdc8e5a	0.026923347
100	0x3c0a577b	0.0084437085
101	0x3b982890	0.0046435073
102	0x3bd9a28b	0.006641691
103	0x3a281d36	0.0006413044
104	0x3cdb402e	0.026764002
105	0xbd0f921b	-0.035051446
106	0xbc9971b7	-0.018730981
107	0xbabd83bd	-0.0014458817
108	0x3d103e27	0.035215523
109	0xbcf75aed	-0.030194724
110	0xbb957241	-0.0045607393
111	0x3ba66fd0	0.005079247
112	0x3bc44d5e	0.005990668
113	0x3b26b76c	0.0025438918
114	0x3cc5ac08	0.024129882
115	0x3c9ca753	0.019122755
116	0x3cc4f2ca	0.024041552
117	0xbcaf94be	-0.02143323
118	0xbd1bf505	-0.038075466
119	0x3c2ed00f	0.010669722
120	0xbb377d75	-0.0027998362
121	0xbacdde68	-0.0015706541
122	0x3c8ae54e	0.016955044
123	0x3c6ba8f4	0.014383543
124	0xbc5a75b1	-0.013333724
125	0x3cd0042d	0.025392616
126	0x3d0dedee	0.034650736
127	0x3ca58aa2	0.020207707
128	0x3c9399ad	0.018017614
129	0x3cbd0e78	0.023078188
130	0x3d0d5578	0.034505337
131	0xbd13ab0f	-0.036051806
132	0xbb8d7161	-0.0043164943
133	0xbc2fe1ee	-0.010735018
134	0x3d067d6c	0.032834455
135	0xbc90eb57	-0.017690344
136	0x3c8fe8a7	0.017566992
137	0xbb82e38d	-0.0039944113
138	0x3cbad864	0.022808261
139	0xbc471501	-0.012151004
140	0x3d1e7bf9	0.03869245
141	0x3d0b23de	0.033969752
142	0xbd014c28	-0.03156677
143	0xbd0e4732	-0.034735866
144	0x390873af	0.00013013066
145	0xbcd623b7	-0.026140077
146	0xbc89744d	-0.01677909
147	0x3cc409ab	0.023930391
148	0x3b23e71c	0.0025009578
149	0xbd1fa3c1	-0.038974527
150	0x3d205f03	0.03915311
151	0xbb12e5a1	-0.0022414702
152	0xbb782785	-0.0037865352
153	0x3ce79193	0.028267657
154	0x3bae5851	0.0053205867
155	0xbcce852d	-0.025209988
156	0x3ca2183a	0.019786943
157	0x3cac509b	0.02103453
158	0x3a6a57ed	0.00089394936
159	0xbc2f1427	-0.010685957
160	0x3bdac409	0.0066762012
161	0x3d1b6a6d	0.037943292
162	0xbd16f222	-0.03685201
163	0x3cf84ee8	0.030311063
164	0xbce04080	-0.027374506
165	0x3c9f1ada	0.019421984
166	0xbb4d36f1	-0.0031313265
167	0xbac11637	-0.0014731352
168	0x3d0d0f77	0.034438577
169	0x3d022406	0.031772636
170	0xbcad0b16	-0.02112345
171	0x3cfc3898	0.030788705
172	0x3c05ac60	0.008158773
173	0xbcf48531	-0.029848667
174	0x3c6f886d	0.014619929
175	0xbc81e1ea	-0.015854795
176	0x3cd35fa6	0.025802445
177	0x3d10f4e3	0.035389792
178	0xbc3b79a1	-0.011442573
179	0xbd249395	-0.040179808
180	0x3afdcddc	0.0019363719
181	0xbd1b0c0e	-0.037853293
182	0xbc982fc7	-0.01857747
183	0x3ca52b93	0.02016238
184	0xbbf07274	-0.0073378626
185	0x3d23d7b6	0.04000064
186	0x395bc91c	0.00020960387
187	0xbd103d68	-0.03521481
188	0xbd02080b	-0.03174595
189	0xbb758808	-0.0037465114
190	0xbd198a66	-0.037485503
191	0x3b8e1484	0.0043359417
192	0xbcd6eaf1	-0.026235076
193	0xbc4a9f46	-0.012367075
194	0xbb5f40f7	-0.0034065822
195	0x3c4c62c2	0.012474718
196	0xbc8d1ea3	-0.017226523
197	0xbc8adcb9	-0.016950952
198	0x3c17e6e5	0.009271358
199	0x3d0170f0	0.031601846
200	0xbc30fda4	-0.01080266
201	0xbc6a3ebc	-0.014297184
202	0x3bd09af6	0.006366129
203	0xbc93ae75	-0.018027524
204	0x3be539bc	0.006995408
205	0xbcde89c6	-0.027165305
206	0xbc4c19cd	-0.012457323
207	0xbbd973d7	-0.0066361236
208	0xba9ed878	-0.0012118956
209	0x3b071515	0.002061193
210	0xbc744599	-0.0149091715
211	0x3a8b9ae0	0.0010651015
212	0x3c6fbab4	0.014631916
213	0x3cdb3cff	0.026762484
214	0xbbfecf77	-0.0077761966
215	0x3ad97c40	0.0016592816
216	0xbd11c61a	-0.035589315
217	0x3cbb86fb	0.022891512
218	0x3cd3a1e3	0.02583403
219	0xbc9cb8b4	-0.019131042
220	0xbcc31540	-0.023813844
221	0xbc6547ec	-0.013994198
222	0xbd1a3781	-0.03765059
223	0xbcf81e91	-0.030288013
224	0xbd0045a3	-0.03131641
225	0xbb2d8daa	-0.0026482143
226	0xbd1a2ebd	-0.03764223
227	0xbd0c4d1d	-0.03425323
228	0x3c643965	0.0139297
229	0xbc67b046	-0.014141148
230	0xbc912cd0	-0.017721564
231	0x3bacee5d	0.0052774386
232	0x3c71581d	0.0147304805
233	0x3ce7cd6f	0.0282962
234	0x3c7794f0	0.015111193
235	0x3d1b700a	0.037948646
236	0xbcf166c8	-0.029467955
237	0x3bdd8167	0.0067598107
238	0xbd244c7a	-0.040111996
239	0xbd141e26	-0.036161564
240	0x3d025d6d	0.03182738
241	0xbca76360	-0.020433128
242	0x3c60b9e7	0.013716198
243	0xbc8ddc96	-0.017317098
244	0xba6429e2	-0.0008703751
245	0xbc966212	-0.01835731
246	0x3c55e91f	0.013056069
247	0xbcc1a351	-0.023637446
248	0x3a45a35b	0.00075392955
249	0xbcf93438	-0.030420408
250	0xbcb4f01e	-0.022087153
251	0xb9a4a435	-0.0003140286
252	0x3ba22103	0.004947783
253	0xbcca0529	-0.024660664
254	0xbcf4d209	-0.029885309
255	0xbbcb0732	-0.006195926

fc1.bias f4 [128]
0	0xbd080624	-0.03320898
1	0xbab2a9a3	-0.0013630878
2	0xbb679290	-0.003533516
3	0xbcbde0b5	-0.023178438
4	0xbc7f7270	-0.015591249
5	0xbcf62eb6	-0.03005157
6	0xbd79009c	-0.060791597
7	0xbd198fc0	-0.037490606
8	0xbc18c093	-0.009323257
9	0xbd127984	-0.035760418
10	0xbd0ffc23	-0.035152566
11	0xbc26a469	-0.010171034
12	0xbbc34e55	-0.0059602656
13	0xbdbc4b68	-0.0919407
14	0xbafa704b	-0.0019106952
15	0x3d878aff	0.06618308
16	0xbc90646d	-0.017626012
17	0x3d7afd17	0.06127652
18	0x3de85d42	0.113459125
19	0xbcf75c77	-0.030195458
20	0x3d2d275d	0.042273868
21	0xbc12e427	-0.008965529
22	0xbc96318a	-0.018334169
23	0xbca1bc42	-0.019743089
24	0xbcdd33d4	-0.027002253
25	0xbc31ef31	-0.01086025
26	0xbc46fff5	-0.012145986
27	0xbc9429d7	-0.018086357
28	0xbc83e0aa	-0.01609834
29	0xbd0b6586	-0.034032367
30	0xbde3e899	-0.11128349
31	0xbbf6f0d6	-0.007536034
32	0xbe43cbfa	-0.1912078
33	0xbc739837	-0.014867834
34	0xbc823ddd	-0.01589864
35	0xbdefc36e	-0.11707197
36	0xbd1acfab	-0.037795704
37	0xbd0df75b	-0.034659725
38	0x3d9d6002	0.07684328
39	0xbcf3a71b	-0.029742768
40	0xbbb03380	-0.005377233
41	0x3d71d415	0.059040148
42	0xbd104524	-0.035222188
43	0xbaf5033c	-0.001869298
44	0xbb69c3d0	-0.0035669692
45	0x3dbc694a	0.0919977
46	0xbb057ffe	-0.0020370479
47	0xbb96422e	-0.004585526
48	0xbb8bd17f	-0.0042669172
49	0xbd0d11be	-0.03444075
50	0xbb70847b	-0.0036700058
51	0x3de60ae6	0.112325475
52	0xbb9216de	-0.0044582924
53	0xbcd30f37	-0.025764091
54	0xbbc162a8	-0.0059016533
55	0xbc212bec	-0.009837132
56	0xbce8a59f	-0.028399287
57	0xbc0c8b47	-0.008578128
58	0xbbbca699	-0.0057571647
59	0xbccdfe6f	-0.025145737
60	0xbcf09269	-0.029366689
61	0xbcd85552	-0.026407871
62	0xbd0bd3c2	-0.034137495
63	0xbcaf803c	-0.021423452
64	0xbbc5c48e	-0.006035394
65	0xbbfd599b	-0.007731629
66	0xbd19fe90	-0.037596285
67	0xbc8fdef0	-0.01756236
68	0xbcc0932d	-0.023507679
69	0xbbdc95e3	-0.006731735
70	0xbb9e95cc	-0.0048396345
71	0xbcf33153	-0.029686606
72	0xbd23d6a0	-0.039999604
73	0x3d408362	0.047000296
74	0xbc621e19	-0.013801121
75	0xbd138d8d	-0.036023665
76	0xbcdb912e	-0.026802626
77	0xbbe1cc92	-0.0068908418
78	0xbc157e28	-0.009124316
79	0xbcddccca	-0.02707519
80	0xbc8a74a1	-0.016901316
81	0x3de51d83	0.111872695
82	0xbacad105	-0.001547367
83	0xbd19a515	-0.03751095
84	0xbce42b9e	-0.02785283
85	0x3d889b07	0.06670194
86	0xbd25489f	-0.04035246
87	0xbc507b3a	-0.012724692
88	0xbc8a7d56	-0.016905468
89	0xbab1e68c	-0.0013572737
90	0xbb3f6d4f	-0.002920944
91	0xbb8f6650	-0.0043762103
92	0xbbe7ddfe	-0.007076024
93	0xbd17963a	-0.0370085
94	0xbd5b2fc1	-0.05351234
95	0xbc198948	-0.009371109
96	0xbafbcde3	-0.0019211139
97	0x3c4a6d67	0.012355185
98	0xbc5b1f9c	-0.0133742355
99	0xbd14b97b	-0.0363097
100	0xbc004d92	-0.007830994
101	0x3df83335	0.12119142
102	0x3c1fa3e0	0.009743661
103	0x3d5a1ffe	0.053253166
104	0xbada0129	-0.0016632426
105	0xbb94962a	-0.0045345025
106	0xbbaf0da9	-0.0053422046
107	0xbce9587c	-0.028484575
108	0xbcaf539b	-0.02140217
109	0xbcd77ecf	-0.026305584
110	0xbbe83fb1	-0.0070876707
111	0xbb65f044	-0.0035085836
112	0xbcb725c2	-0.022356872
113	0x3dade941	0.08491755
114	0xbb503d7d	-0.003177493
115	0xbb89eb0f	-0.0042089294
116	0xbbb5696e	-0.00553625
117	0xbc4f2fc8	-0.012645669
118	0xbbbe2eca	-0.0058039175
119	0xbaa860d8	-0.0012846244
120	0xbc951aab	-0.018201193
121	0x3c4130f9	0.011791461
122	0xbd1e79ed	-0.038690496
123	0xbce6178c	-0.0280874
124	0xbc73331d	-0.014843729
125	0xbc439cdc	-0.011939254
126	0x3e0fe2bf	0.1405134
127	0xbc16d2d1	-0.009205536

fc2.weight f4 [64, 128]
0	0x3d6ba0c8	0.05752638
1	0x3d5bd27e	0.053667538
2	0x3d7e505c	0.062088355
3	0x3d87e956	0.06636302
4	0x3d41d332	0.047320552
5	0xbd41cb43	-0.047312986
6	0xbde866ec	-0.11347756
7	0x3cda819a	0.026673127
8	0xbd929781	-0.07157803
9	0xbd078999	-0.033090208
10	0xbba614d4	-0.005068401
11	0x3d284933	0.041085433
12	0x3cff3a2b	0.031155666
13	0xbcd7a197	-0.02632217
14	0x3d81ac25	0.06331662
15	0xbb97babe	-0.0046304157
16	0x3daed420	0.085365534
17	0xbd856675	-0.06513683
18	0xbdeb200f	-0.11480724
19	0x3d1e8328	0.0386993
20	0x3d89c160	0.067263365
21	0x3cb9ef73	0.022697186
22	0xbd48bf98	-0.049010843
23	0x3d3d24a3	0.046177518
24	0x3a980fff	0.0011601447
25	0xbcc7bc9d	-0.02438193
26	0xbbda7b43	-0.006667526
27	0xbd8e32ae	-0.0694326
28	0x3d15a248	0.036531717
29	0xbb4a4d8f	-0.0030868982
30	0xbcda7398	-0.026666448
31	0xbd8aeb35	-0.067831434
32	0xbde9cd46	-0.11416106
33	0xbda1d7e5	-0.07902507
34	0x3c8b6e38	0.01702033
35	0xbd0a9322	-0.033831723
36	0xbd9a48cf	-0.075334184
37	0xbae06177	-0.001711889
38	0xbd976f2b	-0.073942505
39	0xbdaf82ff	-0.085699074
40	0xbc3177c3	-0.010831776
41	0xbd0c354a	-0.034230508
42	0x3d20a130	0.03921622
43	0xbc62ad9a	-0.013835335
44	0xbd0043a4	-0.031314507
45	0x3c61978e	0.013769044
46	0xbcfb5684	-0.030680902
47	0xbc01b76a	-0.0079172645
48	0xbd03e42c	-0.032200024
49	0xbd2abef4	-0.041686013
50	0xbd40ea0f	-0.047098216
51	0xbd89eac0	-0.06734228
52	0x3d840375	0.06445972
53	0xbca2c836	-0.019870859
54	0xbd0db9be	-0.034600966
55	0x3bfd4e7a	0.0077303024
56	0xbda572b3	-0.08078518
57	0xbda9313e	-0.08261345
58	0x3d2ee858	0.04270205
59	0x3cf58ee0	0.029975355
60	0xbcc3cc31	-0.023901077
61	0x3d57353b	0.052541
62	0x3d7a7028	0.061142117
63	0xbc82e96a	-0.015980441
64	0x3d554aee	0.05207341
65	0x3c421fea	0.011848429
66	0xbd1579b1	-0.036493007
67	0xbd32d628	-0.043661267
68	0x3d47f2d4	0.048815563
69	0xbd24ba2e	-0.040216617
70	0xbdcaf78f	-0.09910499
71	0xbd4a73ab	-0.049426716
72	0x3d57a442	0.052646883
73	0xbde03aab	-0.1094869
74	0x3d4267be	0.047462218
75	0xbc8d4921	-0.017246785
76	0xbd60d5e8	-0.054891497
77	0x3d043fe3	0.03228749
78	0x3ccf500e	0.025306728
79	0xbd9f30b7	-0.077729635
80	0xbcb0dcc1	-0.021589639
81	0xbdda9d6d	-0.10674558
82	0x3d44855d	0.047978748
83	0xbd4bedc2	-0.04978729
84	0xbdb34042	-0.087524906
85	0xbd8d2f24	-0.06893757
86	0x3d1782b5	0.036989886
87	0xbb8dd073	-0.0043278276
88	0xbdad0709	-0.084486075
89	0x3cce0f45	0.025153765
90	0xbc47ad75	-0.0121873515
91	0x3daced07	0.08443647
92	0xbd9b2abd	-0.07576511
93	0xbda21cb1	-0.07915629
94	0xbd5c4e1f	-0.05378544
95	0xbd2b2f5c	-0.041793212
96	0xbd9b8308	-0.075933516
97	0xbdb9f04e	-0.090790376
98	0x3bf9c5a6	0.0076224385
99	0x3db07aaa	0.08617146
100	0xbd40a2c6	-0.047030233
101	0xbdab3f3f	-0.083616726
102	0x3bb59b39	0.0055421856
103	0xbdcbf3f1	-0.099586375
104	0xbd8f1501	-0.06986428
105	0x3cb6d81c	0.022319846
106	0xbdab6278	-0.08368391
107	0x3c30fdb9	0.01080268
108	0xbc6d3715	-0.014478465
109	0xbc8559b3	-0.016278123
110	0xbde70f46	-0.1128221
111	0x3d2253e9	0.039630804
112	0xbd898422	-0.067146555
113	0xbdcfc99a	-0.10145874
114	0xbd886b77	-0.06661122
115	0x3cee4940	0.029087663
116	0xbca7fcff	-0.02050638
117	0x3d6b833d	0.057498205
118	0x3cacb75d	0.021083528
119	0x3d812ca0	0.0630734
120	0xbd3c6788	-0.045997173
121	0x3d1e14d4	0.038594082
122	0x3d8d9eef	0.0691508
123	0xbd67b360	-0.05656755
124	0xbd63a201	-0.05557442
125	0xbce67026	-0.028129648
126	0xbd2f9345	-0.042865057
127	0xbc8c6ce9	-0.017141776
128	0xbd965f0c	-0.073423475
129	0xbceca35d	-0.028886491
130	0xbd9d5a27	-0.07683211
131	0xbca0ef61	-0.019645395
132	0x3d04a930	0.032387912
133	0x3d185499	0.037190054
134	0xbc920bdd	-0.017827922
135	0x3bea937c	0.007158695
136	0x3d8010b8	0.06253189
137	0xbd971f5f	-0.073790304
138	0xbd198f4d	-0.037490178
139	0xbd0878a4	-0.033318177
140	0xbd9c38d9	-0.0762803
141	0x3d1abacf	0.03777581
142	0xbcd91024	-0.026496954
143	0xbd880457	-0.06641453
144	0x3db21649	0.08695657
145	0x3c3336ef	0.01093839
146	0xbcdd0b6a	-0.026982982
147	0x3d578125	0.052613396
148	0xbce36629	-0.027758675
149	0xbd587c7c	-0.052853093
150	0xbd6d5352	-0.05794079
151	0x3ca523e7	0.020158721
152	0x3daedfda	0.0853879
153	0x3d07d64b	0.03316335
154	0xbdad83b4	-0.08472386
155	0xbcfa6680	-0.030566454
156	0x3c6d270a	0.01447464
157	0xbd4d2439	-0.050083373
158	0xbdcc26c5	-0.09968332
159	0x3c9b2e74	0.018943049
160	0xbd127c6a	-0.03576318
161	0xbb7ddd7a	-0.0038736747
162	0x3d90e8bd	0.07075641
163	0xbc45cde5	-0.012073015
164	0x3d89814a	0.06714113
165	0x3d397934	0.045281604
166	0xbd35fb47	-0.04442909
167	0x3b2770a3	0.0025549314
168	0xbdb44727	-0.08802634
169	0xbd9dd254	-0.077061325
170	0xbcda66f4	-0.02666042
171	0xbcdf4076	-0.027252417
172	0x3d1df32f	0.038561996
173	0x3c7fa7e2	0.015603991
174	0x3d5c71f7	0.053819623
175	0xbd8a7e6c	-0.06762394
176	0xbda351d6	-0.07974593
177	0xbd1848aa	-0.037178673
178	0xbc9a15a0	-0.01880914
179	0xbae4b023	-0.0017447512
180	0x3c030e01	0.007998944
181	0x3c543b14	0.012953538
182	0x3b0da387	0.0021612362
183	0xbda0facd	-0.078603365
184	0x3b52992e	0.003213476
185	0xbd294872	-0.041328855
186	0xbd42c0df	-0.047547217
187	0xbcb023b1	-0.021501394
188	0xbd7c001a	-0.061523534
189	0xbd8dc3da	-0.06922121
190	0x3da89d66	0.08233146
191	0xbdae4a0d	-0.08510218
192	0x3bd98c56	0.006639044
193	0x3d1a7771	0.037711564
194	0x3d567839	0.052360747
195	0x3c7e8252	0.0155340005
196	0xbd2ccb8a	-0.042186297
197	0xbd479485	-0.048725624
198	0x3bedad52	0.0072533274
199	0xbd6c4abb	-0.057688456
200	0xbd21e1c8	-0.039521962
201	0xbdadf709	-0.08494384
202	0x3da04157	0.078249626
203	0x3d778fd9	0.06043992
204	0x3d4f253b	0.050572615
205	0xbc6eb7ec	-0.014570218
206	0xbceca7ea	-0.028888661
207	0x3ca9a225	0.0207072
208	0x3d05ce51	0.03266746
209	0xbd8eacf7	-0.06966584
210	0xbc29646d	-0.010338885
211	0xbd815424	-0.06314877
212	0xbda215ec	-0.079143375
213	0xbd90c366	-0.07068519
214	0x3d38aa55	0.045084316
215	0x3c99c346	0.018769871
216	0x3d8c7dc0	0.068599224
217	0x3db0338d	0.086035825
218	0xbcab6ac8	-0.02092494
219	0x3d31eb97	0.043437567
220	0xbd89ae26	-0.06722669
221	0xbc88bbff	-0.016691206
222	0xbd41a8f4	-0.047280267
223	0x3d7ce15a	0.06173835
224	0xbd7cda40	-0.061731577
225	0x3ca8b1bb	0.020592561
226	0xbda8ac43	-0.08235981
227	0x3c277e34	0.01022296
228	0x3d824190	0.06360161
229	0xbd71aa62	-0.05900038
230	0xbde286da	-0.11060877
231	0xbdc87336	-0.097876
232	0x3d90fb59	0.07079191
233	0xbc954c43	-0.018224841
234	0xbd5f2df3	-0.05448718
235	0x3bdaa4e4	0.0066724885
236	0xbda7eec5	-0.081998385
237	0xbdab1731	-0.08354033
238	0xbd1019b5	-0.035180766
239	0x3d0eea0b	0.03489117
240	0x3d96e323	0.07367542
241	0xbce80852	-0.02832428
242	0xbdf4b5af	-0.11948716
243	0xbda8008a	-0.08203228
244	0x3cf000af	0.029297201
245	0xbd8db32e	-0.069189414
246	0xbda8557c	-0.0821943
247	0x3c2a0544	0.010377232
248	0x3d8edb78	0.06975454
249	0x3c8f49c3	0.017491227
250	0xbd52d9e4	-0.051477328
251	0x3c8c6ff0	0.01714322
252	0xbd85dd96	-0.06536405
253	0xbd0125c0	-0.03153014
254	0xbce910f2	-0.028450463
255	0xbd278990	-0.040902674

fc2.bias f4 [64]
0	0xbd19846c	-0.037479803
1	0xbd0f7973	-0.035027932
2	0xbd8798d9	-0.0662095
3	0xbe5c0866	-0.21487579
4	0xbdee5dff	-0.11639022
5	0xbcd378da	-0.025814462
6	0xbd981f46	-0.0742784
7	0xbdab9d07	-0.0837956
8	0xbdd5b0e1	-0.104341276
9	0xbd32b4ce	-0.04362946
10	0xbd4f33af	-0.0505864
11	0xbd14da47	-0.036340978
12	0xbdce0054	-0.10058656
13	0xbdd7a78c	-0.10530004
14	0xbdc80449	-0.09766442
15	0xbd8a12a5	-0.067418374
16	0xbd412907	-0.047158267
17	0xbd0d2a56	-0.034464203
18	0xbdf83e30	-0.12121236
19	0xbd0db9de	-0.034601085
20	0xbdfd34f0	-0.12363613
21	0xbd92a663	-0.07160642
22	0x3ed5a17f	0.41724774
23	0xbd549323	-0.051898133
24	0xbd822f35	-0.0635666
25	0xbd215362	-0.03938616
26	0xbe24e72d	-0.16103812
27	0xbd9ed786	-0.077559516
28	0xbddb49ed	-0.107074596
29	0xbda9d6f5	-0.08292953
30	0xbd360461	-0.04443777
31	0xbd8848be	-0.066544995
32	0xbd325c18	-0.04354486
33	0xbdf1c25b	-0.118046485
34	0xbd4d21f6	-0.050081216
35	0xbcbf743f	-0.02337086
36	0xbe019711	-0.12655284
37	0xbdd1b8b5	-0.10240308
38	0x3dc7ca1e	0.09755348
39	0xbdb402fa	-0.0878963
40	0xbdc2ad4c	-0.0950571
41	0xbdebc1f4	-0.11511603
42	0x3d251b74	0.040309384
43	0xbdb7298e	-0.08943473
44	0xbdd3cd06	-0.103418395
45	0xbd258704	-0.040411964
46	0xbdb6ef90	-0.08932412
47	0xbd8c91f9	-0.068637796
48	0xbd18c9ad	-0.037301708
49	0xbd99c938	-0.075090826
50	0xbe1bfc35	-0.15232928
51	0xbd830784	-0.06397918
52	0xbb844cf3	-0.0040374934
53	0xbd7a61f2	-0.061128564
54	0xbd4a2535	-0.04935189
55	0xbcb56197	-0.022141261
56	0xbdb56501	-0.088571556
57	0xbd019b87	-0.031642463
58	0xbdfd2fba	-0.12362619
59	0xbdf0df94	-0.11761394
60	0xbde0cba7	-0.109763436
61	0xbd8ad0d2	-0.067781106
62	0xbdc00026	-0.09375028
63	0xbdabea99	-0.08394355

fc3.weight f4 [32, 64]
0	0xbdcac024	-0.09899929
1	0xbc7a30c5	-0.015270417
2	0x3cd06f40	0.025443673
3	0xbc75f33b	-0.015011604
4	0x3da50922	0.080583826
5	0xbdc3f5ff	-0.095684044
6	0xbd3208b6	-0.04346534
7	0x3ce2d460	0.027689159
8	0xbdca6c28	-0.098839104
9	0xbd7a2200	-0.06106758
10	0xbe4459b9	-0.19174851
11	0xbdc8d88b	-0.09806927
12	0xbc980788	-0.018558279
13	0xbd02e340	-0.031955004
14	0xbd082c90	-0.033245623
15	0x3df3a582	0.118968025
16	0xbda3ca52	-0.07997574
17	0xbd3bd97f	-0.045861717
18	0xbdb02974	-0.086016566
19	0xbc84fd27	-0.016233994
20	0x3d87e5ce	0.06635629
21	0xba15eea9	-0.0005719462
22	0xbd5a18be	-0.053246252
23	0xbdbfe960	-0.093706846
24	0xbdb8981c	-0.090133876
25	0xbd249265	-0.040178675
26	0xbd8e3050	-0.06942809
27	0x3b047540	0.0020211488
28	0x3c9476b0	0.018123
29	0xbbac2980	-0.0052539706
30	0x3d5fbc1b	0.05462275
31	0xbcb79428	-0.022409514
32	0xbdad5132	-0.084627524
33	0xbdb350c2	-0.08755638
34	0xbd5eabcf	-0.05436307
35	0xbd206d8f	-0.039166983
36	0xbe842169	-0.2580674
37	0x3cf130b8	0.029442176
38	0xbe301755	-0.171964
39	0x3d9dd838	0.07707256
40	0x3d43e5e0	0.047826648
41	0xbdfb128c	-0.12259397
42	0xbe4a4fbb	-0.19756977
43	0x3dbaf8ee	0.09129511
44	0x3deb4480	0.11487675
45	0x3c6ea560	0.014565796
46	0xbc6a6dc0	-0.014308393
47	0xbdd23bf4	-0.102653414
48	0xbdf06da5	-0.11739663
49	0xbca74787	-0.02041985
50	0xbdd27b3d	-0.10277412
51	0xbad0de80	-0.0015935451
52	0x3b49b331	0.0030776972
53	0xbdc2d924	-0.095140725
54	0xbe0f11ca	-0.1397163
55	0xbd98cb3e	-0.0746064
56	0x3aef6080	0.0018263012
57	0x3dc59682	0.09647848
58	0x3ce69d90	0.028151304
59	0xbdbd0b28	-0.092306435
60	0x3d5d5ec8	0.05404547
61	0xbdc26632	-0.094921485
62	0x3d32cdc8	0.04365328
63	0xbd460570	-0.04834503
64	0x3d3ee15a	0.04660163
65	0xbe23edaa	-0.1600863
66	0x3c1ec340	0.009690106
67	0xbe421c65	-0.18956144
68	0xbd782068	-0.06057778
69	0x3d36b7d0	0.04460889
70	0x3d622f4b	0.055220883
71	0xbdb898a2	-0.090134874
72	0x3dac8c80	0.08425236
73	0x3dd904ac	0.10596594
74	0xbe0af09e	-0.1356835
75	0xbaaf2c7e	-0.00133647
76	0x3da1955e	0.07889818
77	0xbd29700c	-0.04136662
78	0x3d8f75d7	0.07004898
79	0x3d1c2768	0.03812352
80	0xbdd65310	-0.10465062
81	0xbdb566a1	-0.088574655
82	0xbdb18ec6	-0.0866981
83	0x3d0c7bff	0.03429794
84	0xbdf7f18a	-0.12106617
85	0x3b60630c	0.0034238724
86	0xbdde8adc	-0.10866329
87	0xbaa503b5	-0.0012589606
88	0x3dcd96a6	0.100384995
89	0xbe07f299	-0.13276137
90	0xbe0407a8	-0.12893546
91	0x3d8d7814	0.06907669
92	0x3ccaef98	0.02477245
93	0xbd2f83b4	-0.04285021
94	0x3de27e99	0.11059303
95	0xbcbf9060	-0.023384273
96	0x3d9f8d59	0.07790632
97	0xbd753c5e	-0.059872024
98	0xbb481c71	-0.003053453
99	0xbe0fd3e8	-0.1404568
100	0xbe3c970a	-0.18416992
101	0xbca3ea20	-0.0200091
102	0xbde5dfce	-0.11224328
103	0x3daefcec	0.08544335
104	0xbd5997f0	-0.053123415
105	0xbe027f0e	-0.1274378
106	0xbb2e3f0c	-0.0026587872
107	0x3d9241ac	0.07141432
108	0x3df4920b	0.11941918
109	0x3da07c96	0.07836263
110	0xbdf9d782	-0.12199308
111	0xbda95fe6	-0.08270244
112	0xbb9c4347	-0.0047687623
113	0xbdc26cb9	-0.094933935
114	0xbe00af1a	-0.12566796
115	0x3de6227e	0.112370476
116	0x3d9f8e43	0.07790806
117	0x3de15fd2	0.110046044
118	0x3db77865	0.0895851
119	0xbd0baebd	-0.03410219
120	0x3dc75588	0.09733111
121	0xbd63bb84	-0.05559875
122	0x3db91fbd	0.09039257
123	0x3dfe52a8	0.12418109
124	0xbd4039d0	-0.046930134
125	0x3d293e5c	0.041319236
126	0xbdb812ec	-0.08987984
127	0x3d9a6d44	0.07540372
128	0x3d891f66	0.06695442
129	0x3c25fcf7	0.010131112
130	0x3a5e2227	0.0008473717
131	0xbced0a94	-0.028935708
132	0x3d71d734	0.059043124
133	0xbd8d51bf	-0.069003575
134	0xbd479585	-0.048726577
135	0xbca237a8	-0.01980193
136	0xbdb3af20	-0.08773637
137	0xbcbc6dc8	-0.023001567
138	0xbbe42d0e	-0.0069633787
139	0xbc249e12	-0.0100474525
140	0xb92a3800	-0.00016233325
141	0xbdaea650	-0.08527815
142	0xbdb16e82	-0.08663656
143	0xbdcf7fee	-0.101318225
144	0x3daae0d9	0.083436675
145	0xbe0d4459	-0.13795604
146	0x3dbf9224	0.09354046
147	0xbd4b76c5	-0.049673814
148	0xbcebee10	-0.02880004
149	0x3d686878	0.056740254
150	0xbe2b7fc7	-0.16747962
151	0xbe381439	-0.17976464
152	0x3d94255a	0.07233687
153	0xbdbd0acd	-0.09230576
154	0xbdfe46dd	-0.1241586
155	0xbd46e864	-0.04856147
156	0x3d17f350	0.037097275
157	0xbd658b94	-0.056041315
158	0xbcfa65dd	-0.03056615
159	0x3d51c0c7	0.051209237
160	0xbd87b03e	-0.066254124
161	0xbdfdd44c	-0.12394008
162	0xbd3857d6	-0.045005642
163	0x3d590bbe	0.052989714
164	0xbb3e62ba	-0.0029050545
165	0x3d0cc2a0	0.034365296
166	0xbd0d7867	-0.034538653
167	0xbca0a768	-0.019611076
168	0xbd9d6a08	-0.076862395
169	0xbe133a8f	-0.14377807
170	0xbc31cae7	-0.010851598
171	0xbdbceb60	-0.09224582
172	0x3d9a31ee	0.075290546
173	0xbd2a0ebd	-0.04151796
174	0x3d607684	0.054800525
175	0xbd637094	-0.055527285
176	0x3ddf0ac2	0.10890724
177	0xbdab29c9	-0.08357579
178	0xbdbc69f9	-0.091999
179	0x3daba418	0.08380908
180	0x3cfca350	0.030839592
181	0x3db32341	0.087469585
182	0x3da74fe3	0.08169534
183	0xbcaeebab	-0.02135261
184	0xbdceaeac	-0.1009191
185	0xbd77826c	-0.060427114
186	0xbd9d7844	-0.076889545
187	0x3d1f7be6	0.038936518
188	0x3db9028a	0.090336874
189	0x3d93ec8b	0.07222851
190	0xbda187f2	-0.07887258
191	0xbdfda288	-0.12384516
192	0x3b2794e4	0.0025570923
193	0xbd3c251f	-0.04593384
194	0x3c34d810	0.011037841
195	0x3cf4d167	0.029885007
196	0x3d06ace4	0.032879725
197	0x3be51d98	0.0069920532
198	0xbcb007a5	-0.02148802
199	0x3dac4c3c	0.08412978
200	0xbdcf1bbc	-0.10112712
201	0x3d78af90	0.060714304
202	0xbdd58a71	-0.10426796
203	0xbe09b8ea	-0.13449445
204	0x3de40ec4	0.11135629
205	0xbddc2c2a	-0.10750611
206	0xbdac661d	-0.08417914
207	0xbc9bea18	-0.019032523
208	0x3b608a40	0.003426209
209	0x3d097abd	0.033564318
210	0xbd61a8a8	-0.055092484
211	0x3d87a062	0.066223875
212	0xbdaaf26a	-0.08347018
213	0x3bd5ca82	0.006524385
214	0xbd18bb40	-0.03728795
215	0x3daaaf4e	0.08334218
216	0x3dee9cc6	0.11650996
217	0xbe1edf5f	-0.15514897
218	0xbdba937b	-0.09110161
219	0xbd89ec84	-0.06734565
220	0x3c93e420	0.018053114
221	0xbdd64bd4	-0.10463682
222	0x3d4da375	0.050204713
223	0xbdd8e4c4	-0.105905086
224	0x3dd36539	0.10322041
225	0x3dc9efac	0.09860167
226	0x3bdfbf9e	0.0068282625
227	0xbdac2b39	-0.084066816
228	0xbdaaf92d	-0.08348308
229	0xbcb1f5e8	-0.021723703
230	0x3c843682	0.016139273
231	0xbda52894	-0.0806438
232	0xbdde24d4	-0.10846868
233	0xbda68128	-0.08130103
234	0xbd0b0350	-0.033938706
235	0xbcda60c8	-0.026657477
236	0x3c311cf0	0.010810122
237	0x3dfe7ad2	0.1242577
238	0x3dec9dee	0.1155356
239	0x3d5744b0	0.05255574
240	0x3d556b4a	0.052104272
241	0x3c125c54	0.008933146
242	0xbdc85f20	-0.09783769
243	0xbd694a70	-0.056955755
244	0xbdcb9191	-0.09939874
245	0x3d98c45f	0.0745933
246	0x3d362a5e	0.044474
247	0x3dc618ff	0.096727364
248	0x3d47b0b8	0.048752517
249	0x3db563b6	0.08856909
250	0xbccede48	-0.025252476
251	0x3df5fcb2	0.120110884
252	0xbdff3582	-0.12461378
253	0x3dbb7200	0.09152603
254	0xbbcf6c20	-0.006330028
255	0xbdee1fa0	-0.11627126

fc3.bias f4 [32]
0	0xbd0d9aaa	-0.034571327
1	0xbd0765bc	-0.033056006
2	0xbd6eecfe	-0.058331482
3	0xbd20225b	-0.039095264
4	0xbd3900e6	-0.045166872
5	0xbda524e0	-0.08063674
6	0xbda0aeda	-0.0784585
7	0xbc90ac0c	-0.017660163
8	0x3ec77e13	0.38963374
9	0xbdb5bc56	-0.08873813
10	0xbdd3603e	-0.10321091
11	0xbd1533c7	-0.03642633
12	0xbd1c8f5c	-0.038222656
13	0xbd36e072	-0.04464764
14	0x3e85f8ab	0.2616628
15	0xbb811667	-0.003939438
16	0xbdac6192	-0.084170476
17	0xbe176408	-0.14784253
18	0xbcf92f08	-0.030417934
19	0xbd7a692e	-0.061135463
20	0xbbbfb1a2	-0.005850033
21	0xbd8a66ba	-0.06757875
22	0xbde41e58	-0.111386
23	0xbe1bc91d	-0.15213437
24	0xbd01c892	-0.03168542
25	0xbd3111ac	-0.043229744
26	0xbcc92350	-0.024552971
27	0xbd842354	-0.06452051
28	0xbc31416e	-0.010818822
29	0xbda7bf12	-0.08190741
30	0xbe2afb1a	-0.1669735
31	0xbdc04a9e	-0.09389232

output.weight f4 [1, 32]
0	0xbc7df392	-0.015499966
1	0xbb653fea	-0.0034980723
2	0x3c293738	0.010328107
3	0xbc123a20	-0.008924991
4	0xbb1e0341	-0.0024110826
5	0x3e1cfdc9	0.15331186
6	0x3dcc0c82	0.09963323
7	0x3c6dc651	0.014512614
8	0x3e32d2fa	0.17463294
9	0x3defb4ef	0.11704432
10	0xbd6916b4	-0.056906417
11	0xbc93a6d4	-0.018023886
12	0x3c867946	0.01641525
13	0xbc66253a	-0.014046961
14	0xbe202090	-0.15637422
15	0xbcc83279	-0.02443813
16	0xbb9c02ef	-0.004761092
17	0xbc2e1b24	-0.010626588
18	0x3c9edd65	0.019392679
19	0x3c020815	0.007936497
20	0x3d27d6bb	0.040976267
21	0x3cf288c2	0.029606227
22	0x3c560a0a	0.013063917
23	0xbdb0c698	-0.08631629
24	0xbcf5c85b	-0.030002763
25	0xbd115e9c	-0.035490617
26	0xbc9b2e60	-0.018943012
27	0x3d930db9	0.07180352
28	0x3dbfe892	0.09370531
29	0xbd423573	-0.047414254
30	0xbc8f6255	-0.017502943
31	0x3e0b5a1e	0.13608596
