q_network_experiment.pth (torch, 352344 bytes, 7 tensors)

fc1.weight f4 [128, 600]
00000000: 1f72 b1bc 8df1 a93c 39e7 2c3a 1169 0dbd
00000010: 063f 9f3d 50c8 5a3d 7196 343d 3b16 73bc
00000020: 97a0 1cbe 7af1 0ebc a9bc 913d 568f 0f3d
00000030: 39ee 0abd eefc 25bd 4f11 963d 1c04 21bb
00000040: aa83 c63b 95ce 04be e065 603c c9f6 ba3a
00000050: 10d2 61b8 f9aa bfbb 4d0a 1c3d 7a1b 1abd
00000060: 3a0f acbc 265f 4a3d 1db5 babb 1c88 033d
00000070: 4e57 4fbd 8159 113e a0c1 f1bc 0958 ef3d
00000080: 9139 96bd 1d63 adbb 2854 18bd a5ac ec3c
00000090: f77e c33b 34ba a6bb afd4 21bd 54a6 5a3d
000000a0: 16ff a9bc 9ad7 913d e84e d93d dfe8 2bbc
000000b0: 5e58 b3bc 985c caba b352 24bd 93ef 3d3d
000000c0: 1c34 2dbd d7e0 81bd 9e4b 9bbd b766 bc3d
000000d0: 0aad 68bc 8267 1abd 1475 a33d 1d4a 26bd
000000e0: 71c7 b9bc 46c2 3e3c 8408 963d 1b2b f33c
000000f0: 83b9 673d cd23 253e 26b8 183b f669 3bbd
00000100: 10cb b33b 4300 9abb 69dd 7f3c 72f3 1fbd
00000110: e070 a9bc 3721 ef3b 476a 81bb a516 3fbd
00000120: c42b d8bc 1ef7 203c a783 50bc 9170 44bd
00000130: c86a 993c 61e3 0f3c c556 e53d b99a ccbd
00000140: 29d3 eb3c c9bd 30be 78e5 26bd a320 53bd
00000150: ec7f f53c 8001 c4bc 12ca 663b d7f1 f53d
00000160: e633 333b 1cef 8abd 00a0 d4bc b89f 1a3d
00000170: cee4 babd ac40 06bd 8f3d 91bd 134a 89bd
00000180: aaa4 ea3b d491 9d3a 7c04 01bc 5ee1 193c
00000190: d345 d8bc 778c 19bd cfd2 21bb 36a0 b4bd
000001a0: c42d 923d f565 3a3c b6ed b33b 76e8 fbbb
000001b0: 0735 62bb e2bb 1cbe ce84 833d 894b c23c
000001c0: 3866 913c 210c 47bd 6abf 04bd dc6c 6ebd
000001d0: b95b 61bd a452 6ebd f9b6 0f3d f73b 05bd
000001e0: 6fa7 12bd 449e 39bc f693 113d a8b2 ffbd
000001f0: ad0f b63d 3311 edbb 7e23 b8bc 9691 ae3c
00000200: 331b b2bd 0b34 02bd 2e6f 423d acc4 733a
00000210: 5470 313c 3960 0bbd 0f32 773c 8f4c 4b3d
00000220: 54c1 273d ca6f 91bd c51a 71bd 8cc1 893d
00000230: cb92 b6bc 5724 f33b 774a 79bb 8090 3f3e
00000240: da10 3fbc a253 7e3a af8a 423d e59f 313d
00000250: e8bd 96bd 8f98 023c f47f e43c b663 1a3c
00000260: 4466 963d 3702 80bb f7f3 89bd 3d73 7c3a
00000270: 44fa 4f3c 7fc6 6a3d 8419 163d 0fdb 02bd
00000280: dd18 7ebd 9736 ddbc 469d 0cbd 5bd9 82bd
00000290: 4b3d b8bc 2d3a 02bd 8cd2 44bd 5ffe 91bd
000002a0: 897a ae3c 6523 20bd c8e0 7c3c cbe8 30bd
000002b0: 40b6 113e de77 923c aebd 07be 8751 70bc
000002c0: 6254 243c c836 76bc 5545 0abd 9e63 53bc
000002d0: ba36 dc39 fe91 803d ad70 11bc 4d35 f1bc
000002e0: 9f49 863d c570 0fbc 9214 3cbd 8b3c 37bd
000002f0: d39a 9c3c bfd0 543d a5d9 6dbd 7c84 02bd
00000300: de15 2a3d 9d8e 18be 2f3b 943c fce5 a43d
00000310: 00e3 b4bd 9ed5 c8ba 6fa9 7e3d e38a 5dbd
00000320: 5f4a 0ebd e1da 95bc be0a e0bc a681 95bc
00000330: 19e4 afbc c2d3 1c3d 0632 bfbc 4714 32bd
00000340: ad8d 683b ce45 cb3c d390 9bbd 3e99 673c
00000350: ce8c 2cbc 0e40 18bb b8eb 74bd 4307 9abb
00000360: 52c4 66bd 281c 093d 7f48 35bc 1b88 a9ba
00000370: 82f3 94bd c546 f4bc 28ed 173d 79ab e63c
00000380: 7bd6 8b3d fc98 08bd 5692 4d3d 9f21 c33d
00000390: 5833 203d 3e56 1abd 009b 3c3d a356 57bd
000003a0: ee45 8a3d 523d 423d c2f4 433d 5468 793c
000003b0: 2d70 05bd c152 36bd ff45 7cbb a253 da3c
000003c0: 2065 9fbd 9f96 433c 5f02 c3bd 24cd 76bb
000003d0: 3292 da3c 25c0 cabc 9bdc 2b3d 024a 233c
000003e0: 6c49 69bc cd69 02be fa28 25bd 3ab9 16bd
000003f0: 47a1 87bd 6956 1c3d 4509 1fbd 3495 91bd
-0.021660862 0.020745063 0.0006595734 -0.034524027 0.07775693 0.05341369 0.044088785 -0.014836843
-0.15295635 -0.008724565 0.07116062 0.035048805 -0.033918593 -0.040524416 0.0732752 -0.00245691
0.006058176 -0.1296943 0.013696164 0.0014264222 -5.3839816e-05 -0.005849239 0.03809576 -0.03762386
-0.021003354 0.049407147 -0.00569786 0.032112226 -0.05062037 0.141943 -0.029511273 0.11686713
-0.07335199 -0.0052913562 -0.037189633 0.028890917 0.005966063 -0.005088115 -0.03950947 0.05338128
-0.020751517 0.07121201 0.10610753 -0.0104925325 -0.021892723 -0.0015438972 -0.04011793 0.046371054
-0.042286023 -0.06341713 -0.07582782 0.09199279 -0.014201412 -0.03769637 0.07981315 -0.040598024
-0.022678109 0.011642998 0.07325843 0.02968364 0.056573402 0.16126938 0.002330312 -0.04575535
0.0054868534 -0.004699738 0.015616753 -0.039050527 -0.020683706 0.0072976607 -0.003949437 -0.046652455
-0.026388057 0.009824542 -0.012726701 -0.047958914 0.018727675 0.008782239 0.111981906 -0.099904485
0.028787212 -0.17259897 -0.040746182 -0.051544797 0.029968224 -0.023926497 0.0035215658 0.12009018
0.0027344166 -0.06783888 -0.0259552 0.037749976 -0.09125672 -0.03277652 -0.070918195 -0.06703582
0.0071607428 0.001202161 -0.007874604 0.009392111 -0.026400482 -0.037487473 -0.0024692302 -0.0881962
0.07137635 0.0113768475 0.005490984 -0.0076876236 -0.003451647 -0.15306047 0.06421815 0.023717659
0.017748937 -0.04859555 -0.03240911 -0.058209285 -0.055019114 -0.05818428 0.035086606 -0.03252789
-0.03580421 -0.011329237 0.035541497 -0.12485248 0.08889709 -0.0072347163 -0.022477861 0.021309655
-0.08696594 -0.031787913 0.04746931 0.0009299021 0.010830004 -0.034027312 0.0150876185 0.04963356
0.040955856 -0.071014 -0.05886342 0.06726369 -0.022286793 0.0074201035 -0.003803877 0.18707466
-0.011661733 0.00097017933 0.04749554 0.043365378 -0.073604405 0.007970943 0.027893044 0.009423187
0.07343724 -0.003906514 -0.06735986 0.0009630209 0.012693945 0.057318207 0.036645427 -0.03194719
-0.06203543 -0.02700357 -0.034329675 -0.063891135 -0.022490164 -0.031793762 -0.048052356 -0.071285956
0.021298664 -0.039096255 0.015434451 -0.04319076 0.14229679 0.017879423 -0.13255951 -0.014667875
0.010029884 -0.015027709 -0.033757526 -0.012902169 0.00042002444 0.06277846 -0.008876962 -0.029444361
0.06557011 -0.008754914 -0.045918055 -0.044735473 0.019116795 0.05195689 -0.05806889 -0.03186463
0.04152476 -0.14898153 0.018094627 0.080516785 -0.08832359 -0.0015322452 0.062173303 -0.05408753
-0.034738895 -0.018292846 -0.027348872 -0.018250298 -0.02147107 0.038287885 -0.023339283 -0.04347637
0.0035484836 0.024813559 -0.075959824 0.014135657 -0.010531617 -0.002323154 -0.05979511 -0.0047005727
-0.05633957 0.033474118 -0.011064648 -0.0012934239 -0.07273008 -0.029818902 0.037091404 0.028157936
0.06828018 -0.033349022 0.050188385 0.09527897 0.039111465 -0.037679903 0.046046257 -0.052572858
0.06751619 0.04742176 0.04784084 0.015222628 -0.032577682 -0.044512514 -0.003849387 0.026651207
-0.0778296 0.011937766 -0.095219366 -0.0037658894 0.02668104 -0.024749825 0.041958433 0.009966375
-0.014238697 -0.12735672 -0.04032228 -0.03679774 -0.06622558 0.038168345 -0.0388272 -0.07108536

fc1.bias f4 [128]
00000000: 976e a2bc f96d e7bb 1178 10bd 534b 51bc
00000010: ed19 30bc 4e7c c9bb a667 0dbd 6114 e5bb
00000020: a306 d5bb 2455 54bb 3e61 7abb 5e07 a8bc
00000030: a8d2 16bc 6ab6 51bb 0d73 08bd 988b dabc
00000040: addf 49bc 831c 15bd 1848 35bc ecce 82bc
00000050: 9214 21bd 8293 b6bc 8faa 95bc ce31 e3bb
00000060: 2e81 09bc 589b 8abc 49ec bfbc 695e b0bb
00000070: e3d4 c9bb e291 a9bc b8d5 15bd 3d85 3cbb
00000080: 0848 25bd 12e9 78bc fe87 f5bb 39f4 f7bc
00000090: 7650 a1bc cae0 13bd d013 f9bc 4c4c edbc
000000a0: e77c bfbb 84ad 31bc 9cdb cdbc 0cd7 8abb
000000b0: 70d6 cabc b1ea 88bb c08e 91bc 798c babc
000000c0: 3397 6ebc 11b9 1abc 4adc e7bb dca0 a8bc
000000d0: aed7 d1bb 0716 1ebd bdc4 1bbc 7ba0 a3bc
000000e0: 0b77 06bc b9bf 09bd 34c9 90bc 60c6 65bc
000000f0: cd69 ffbb 85d1 a6bb bc3a d8bc 0874 cabc
00000100: 1d63 30bc 7280 12bc 1912 94bc b3e4 26bd
00000110: 33d6 2ebc 9be1 72bb d733 f0bc eb88 99bc
00000120: 43fa 17bd 6e2f bfbc c637 15bc 53e9 fcbb
00000130: f5f1 02bc 289b a9bc 6f2e e5ba 60d0 85bc
00000140: 5c04 aa3d 7709 86bc 1123 8fbc d26c e3bb
00000150: 1789 cabb a641 16bc b097 8bbc 5ede dabb
00000160: d241 80bb cc94 a9bb 44e9 bbbc a1a5 c2bb
00000170: 3a7c cabb 0d1c 05bc a1a1 81bb 09c9 75bb
00000180: d877 02bd 6432 b3bc 558f 9fbc d540 20bd
00000190: 39b7 c7bb e934 8abc 1d6d 88bb 9a91 02bd
000001a0: cb60 c0bb 4e53 b6bc 0186 d8bc cbb6 eabc
000001b0: ca33 b2bb 23c4 08bd f015 fabc 0d29 51bc
000001c0: 317a 7dbc e704 36bb 8256 c3ba 2e60 45bc
000001d0: 49ff e6bc 6e99 0bbd 83a3 d8bb 7265 76bc
000001e0: 0a52 aebc bc39 06bd dd8b 23bd 226d 84bc
000001f0: 8e4e 64bc df1f a1bb 43a5 c9bc d56d 33bc
-0.019828124 -0.0070626703 -0.035270754 -0.012774306 -0.010748369 -0.0061488515 -0.034522675 -0.0069909547
-0.0065010353 -0.003239938 -0.0038204934 -0.020511325 -0.009205498 -0.0031999596 -0.033312846 -0.026677892
-0.012321395 -0.036404144 -0.011064552 -0.015967809 -0.039326258 -0.022287134 -0.018269805 -0.0069334274
-0.008392615 -0.016919777 -0.0234281 -0.0053823483 -0.0061594113 -0.020699445 -0.03658077 -0.002876594
-0.040351897 -0.015192287 -0.007493018 -0.030267822 -0.019691687 -0.036103047 -0.030404955 -0.028967045
-0.005843747 -0.010844592 -0.025129132 -0.0042370614 -0.024760455 -0.004178368 -0.017768264 -0.02277206
-0.014562416 -0.009443537 -0.007075821 -0.020584516 -0.006403885 -0.038595226 -0.009507355 -0.019973984
-0.008207093 -0.033630107 -0.017674066 -0.014024347 -0.007794595 -0.0050908946 -0.026395194 -0.024713531
-0.010765818 -0.008941757 -0.018075036 -0.04074545 -0.010671186 -0.003706074 -0.029321594 -0.018742045
-0.037103903 -0.023338046 -0.009107536 -0.007718244 -0.007992257 -0.020703867 -0.0017485152 -0.016334713
0.08301613 -0.016361935 -0.017472776 -0.0069404626 -0.006180893 -0.009170925 -0.017040104 -0.0066793403
-0.0039140964 -0.0051752087 -0.022938378 -0.0059401547 -0.0061793597 -0.008124364 -0.0039560352 -0.003750386
-0.031852573 -0.021874614 -0.019477526 -0.03912433 -0.00609484 -0.016870933 -0.004163398 -0.031877138
-0.0058709136 -0.02225652 -0.026431086 -0.028651616 -0.0054383026 -0.033390176 -0.030528039 -0.012766135
-0.015471027 -0.0027773918 -0.0014903101 -0.012046857 -0.028197901 -0.03408187 -0.006611289 -0.015038835
-0.021279354 -0.032769904 -0.039928306 -0.01616532 -0.0139347445 -0.0049171294 -0.024614936 -0.010951479

fc2.weight f4 [64, 128]
00000000: 9690 e53c 8692 a03d eec5 663c 2351 be3c
00000010: a2c7 6fbc fb50 a6bd 04a2 9ebd 4bc6 253d
00000020: 9f99 04bd 0b43 3cbd 474f fabc d08a a0bd
00000030: 8b2a 0ebd 7ac2 a3bd 7559 77bc 2e41 9cbd
00000040: 3e69 9ebd b831 133c 7b42 50bc 13ae 8e3c
00000050: 6ab2 96bd a863 7ebc 7bb8 d93c c4c3 d83b
00000060: 8937 923c 703e 1a3d a047 883d ce08 cf3b
00000070: f3f5 333d 4fa1 76bd 02b4 9f3c 49f1 40bd
00000080: da0b 013c 3c74 233d 7238 85bd eb98 81bc
00000090: a08c 70bd 8f68 253c 1d25 15bb 45e5 633d
000000a0: f2d9 9d3c e28c 863d 8679 13bd f823 9abc
000000b0: ab2d c33b fe16 00bd 97bc 193d 8149 1ebd
000000c0: 21cb 25bd ddd7 be3b 4285 24bd dc52 d3bc
000000d0: 8707 e53a c6c2 33bd a7fb 043d 619d 41bd
000000e0: 8b23 5ebd df46 bcba b997 c3bd 4ffb a4bc
000000f0: cfab 753d 3485 643d be26 a23d 3d19 453c
00000100: 6dc5 263d 6967 a13c 305e 7b3d 0c29 a7bd
00000110: e4bb 85bd 03f2 08bd 3c67 a8bd 790b 71bd
00000120: 7cb9 813d 9c0a 47bd 74f6 19bd 6a64 ebbc
00000130: fd20 2d3d 76fe 423c 1853 9ebd ef3b afbd
00000140: e9d2 acbd 54e0 0b3c 3485 00bd 1201 8abd
00000150: f186 513d 9a25 e5bc 8ef7 a43d fd43 873d
00000160: 72f7 303d b4b8 5b39 b97b a0bd af46 f7bc
00000170: 8f9a d03b bbc0 8c3d 5e9d 8abd 4a68 823d
00000180: e23b c8bd 5e74 2e3d fee6 2b3d 3910 06bc
00000190: eb2c 95bd dfde 353d 4d3c a9bd c354 183b
000001a0: b97c 53bd f969 0a3d 1e31 0e3d 0746 003d
000001b0: 3ea8 3abc f8f2 94bd cdc3 0fbc 4a81 e33b
000001c0: f51a 5dbd af06 24bd c10b bbbd 28cc a83c
000001d0: 5e95 17bd 179e 27bd 0cff 9bbc 69b6 34bc
000001e0: 57ad 5b3d a6ec 26bd ed52 233d 0e92 4c3d
000001f0: 71f4 5abc c5da a7bd aa83 09bc 99ee 8cbc
00000200: 7411 6fbc a1af 28bc bbfa 103d 96b9 08bd
00000210: 5ce8 31bd c94b 01bc caa1 9bbd a34b 593d
00000220: e1ac 413d 7131 3d3c a771 a8bb 3f05 7bbc
00000230: 47c1 433d 1ac0 a83d 575a 813b c384 d2bc
00000240: 2032 6a3d 1315 8c3d ee5b e6bc 5629 4bbd
00000250: befe 9a3c 3864 52bb 15d4 a5bc 3095 25bd
00000260: 9b74 97bd 1f67 a5ba 3155 a93d 1a82 0b3d
00000270: f89f 053d 4911 89bd 8911 92bd e2ce 90bd
00000280: b24e 513d a1eb bc3a 1b04 f93c 50f1 3f3d
00000290: e48b 62bd 0de7 153d 43a0 1dbd b667 9b3d
000002a0: 9c4b 893d c097 afbb 1922 99bd 3acb 5cbc
000002b0: 5153 ff3c 4428 3f3d ea01 7cbd 228d cebd
000002c0: 6195 a03c 843b afbc ba7d 63bd 8676 5cbd
000002d0: 829a 9b3b 580a ac3c 6d82 1bbc 4f5a 31bc
000002e0: 4ea8 593d c54c 863b 92ab 193d 31b8 823d
000002f0: 0f27 8fbc 748b 6ebd c083 92bc 586c a53d
00000300: 49e4 76bb 5bb3 753c 0c16 163c 1c2b ecbc
00000310: eda6 233d c757 4d3c ffa1 1b3d aed7 cbbd
00000320: 3959 e43a 6f04 503d 9fb6 8c3d c153 5e3d
00000330: 32ef 9abd 74e5 3f3d 51c2 323d 4417 7d3d
00000340: 00c5 ccbd 2684 6c3d 26a1 3e3c 1bb0 26bd
00000350: c2c3 80bc e74e 53bd 96a0 a7bd 4c7e a0bd
00000360: 54e5 a6bd fa23 3f3d 5d6f a53c 83b8 31bd
00000370: a69c b93c c090 6d3d 70ea 03bd ac24 013d
00000380: 6800 be3c ed90 423d e70c 71bd d754 9a3c
00000390: 71ee 1f3d db94 cc3c e3d1 8cbd e6cc e5bb
000003a0: 48f1 133d af30 73bb b6f8 ad3d b7ba 1fbd
000003b0: 2b5f bebc b62a 863d 81c5 24bd 5f02 79bd
000003c0: 8fbc 493d 57ad 3bbc bd6d 703d da8e 12bd
000003d0: 9387 6abd 922f 87ba 3b1e 7cbb d1f8 43bd
000003e0: 9e83 b83c 947e 623d 98a9 4c3d 1b95 143d
000003f0: 4c36 29bd 9629 97bd fb53 a33d 0e45 a73d
0.028023046 0.07840447 0.014085276 0.023232048 -0.0146349985 -0.081209145 -0.07745746 0.04047231
-0.032373067 -0.045962375 -0.03055538 -0.078389764 -0.03470854 -0.07996078 -0.015097012 -0.076296195
-0.07734917 0.008984022 -0.012711163 0.01741699 -0.073582485 -0.01552669 0.026577225 0.006615134
0.017848747 0.0376572 0.066542864 0.0063181883 0.043935727 -0.06021243 0.019495014 -0.047105107
0.007876361 0.03990577 -0.06504907 -0.015819987 -0.05872786 0.0100957295 -0.0022757717 0.05563857
0.019268963 0.0656984 -0.036004566 -0.01881598 0.005956372 -0.031271927 0.03753337 -0.038644318
-0.040476922 0.0058240728 -0.040166147 -0.025796346 0.0017473557 -0.043886922 0.032466557 -0.04726923
-0.054233115 -0.0014364383 -0.09550423 -0.020139365 0.059978303 0.055791095 0.07917546 0.012029943
0.040715624 0.01970263 0.06136912 -0.08162126 -0.06529978 -0.033433925 -0.082228154 -0.05884883
0.063342065 -0.048594102 -0.03758855 -0.028734405 0.04226779 0.0119014885 -0.077306926 -0.08556353
-0.084386654 0.008537371 -0.031377032 -0.067384854 0.05115408 -0.027972031 0.0805503 0.066047646
0.043204732 0.00020954275 -0.07836098 -0.030185072 0.006366081 0.06872698 -0.06768297 0.06367548
-0.09777047 0.042591445 0.04196834 -0.008182579 -0.07283958 0.044402 -0.082634546 0.0023243881
-0.051632617 0.03379247 0.03471481 0.031316783 -0.011392651 -0.07272905 -0.00877471 0.0069429027
-0.053980786 -0.040045436 -0.09133101 0.020605162 -0.037007682 -0.04092225 -0.019042514 -0.011029818
0.053632107 -0.04075303 0.039874006 0.049943976 -0.013363943 -0.08196024 -0.008393208 -0.017203616
-0.0145915635 -0.010295779 0.035395365 -0.033380114 -0.043434486 -0.007891604 -0.07599218 0.05305065
0.04728401 0.011547432 -0.0051405015 -0.015321075 0.047791746 0.082397655 0.003947537 -0.025698071
0.05717671 0.06839957 -0.028120007 -0.049599968 0.018920299 -0.0032103192 -0.02024273 -0.04042548
-0.073952876 -0.0012619233 0.08268202 0.03405962 0.03262326 -0.0669275 -0.07132251 -0.0707071
0.05110044 0.0014413485 0.030397465 0.046860993 -0.05530919 0.0365973 -0.038482916 0.07588141
0.067038745 -0.005358666 -0.07477207 -0.013476187 0.031167658 0.04666926 -0.061525263 -0.10085513
0.01960248 -0.021390684 -0.055539824 -0.05382397 0.0047486434 0.021001026 -0.009491545 -0.010824754
0.053139023 0.004098507 0.037517138 0.06382788 -0.01747468 -0.05823846 -0.017885089 0.080773056
-0.003767269 0.014996375 0.00916053 -0.02882915 0.039954115 0.012533135 0.03799629 -0.09953247
0.001742161 0.05078548 0.0687077 0.054279093 -0.07565154 0.046849683 0.043642346 0.061789766
-0.09998512 0.057743214 0.0116351005 -0.04069529 -0.015718345 -0.05158892 -0.08184926 -0.07836589
-0.081492096 0.04666517 0.020194704 -0.043388855 0.022657704 0.057999372 -0.032206 0.031529114
0.023193553 0.047501493 -0.058850195 0.018839283 0.039045755 0.024973324 -0.0687597 -0.007012951
0.036118776 -0.0037107875 0.084947035 -0.038996425 -0.023238739 0.06551115 -0.040227417 -0.060793277
0.04925209 -0.011454902 0.058698405 -0.035780765 -0.0572582 -0.001031386 -0.0038470167 -0.04784471
0.022523697 0.055296496 0.049966425 0.03627501 -0.041311547 -0.07380979 0.079750024 0.08167468

fc2.bias f4 [64]
00000000: f023 62bb c85f 8b3a 2136 bb3d 7dcc eb3e
00000010: 1e7c 8bbd c062 8abc 033e 18bc 11e9 bc3b
00000020: b1be 2c3e 9fc7 fb3c 9afa 6c3d c6e7 5bbc
00000030: c1fe cabb 81c9 7bbc a499 9fbc 5c3e fdbc
00000040: aa83 d4bc 3bbd e73c e6ff 9dbd b933 6bbd
00000050: cda0 80bd 393d c7bc d3d0 41bc 6b91 00bc
00000060: 1dbf 95bd 7ea4 97bc 8be2 2cbd 8aa1 6ebd
00000070: 7017 b1bd 2edd bbbc ea99 d43d 6257 dabb
00000080: ca3d 58bc 3f9e a9bd d88a 70bc 5221 f5bc
00000090: 1a02 81bb 2977 0cbc 3ee8 19bc 52d7 9fbc
000000a0: 0313 94bd 0ebb cbbc 2beb a8bc 0b0a 3dbd
000000b0: 5d11 fd3b 5caf debc 2e8a c03c 32bc c9bb
000000c0: 4824 a1bd e79a 1e3c 6812 9ebd 2649 b4bc
000000d0: 71df 80bd 6010 95bc 6194 3abc e773 1fbc
000000e0: 192c 67bd 7a61 dc3c 6945 37bb 3096 f5bc
000000f0: 3411 3bbc f7a9 f9bc ee8c 39bc acb1 7cbd
-0.0034506284 0.0010633403 0.09141184 0.4605445 -0.06810783 -0.01689279 -0.0092921285 0.0057650884
0.16869618 0.030734835 0.05785618 -0.013421958 -0.00619492 -0.0153678665 -0.019482441 -0.030913524
-0.025941689 0.028288474 -0.077148244 -0.057422373 -0.0628067 -0.024321185 -0.011829573 -0.00784717
-0.073118426 -0.018511053 -0.042208236 -0.058259524 -0.086470485 -0.022932615 0.10380919 -0.006663249
-0.013198325 -0.08282136 -0.01468154 -0.029923115 -0.003937018 -0.008573332 -0.00939375 -0.019511852
-0.07230189 -0.024869468 -0.02061995 -0.046152156 0.007723017 -0.027183227 0.02350339 -0.006156468
-0.07868248 0.009680486 -0.077183545 -0.022007536 -0.06292618 -0.018196285 -0.011387915 -0.009732223
-0.05643854 0.02690195 -0.0027964956 -0.029978842 -0.011417676 -0.030476553 -0.011325104 -0.06169288

fc3.weight f4 [32, 64]
00000000: de5e 66bd d227 9b3d 9334 7f3e 2815 303f
00000010: a8c9 ebbc 55dd 8ebd e391 e23d afc0 253d
00000020: c91a 623e e8c0 123e 2316 003e 80c1 a43c
00000030: 7027 023d 6d77 ed3c 1364 d5bc ae21 07be
00000040: 1c1d d9bd f086 103e c019 76bc fc56 963d
00000050: e0dc 11bd a098 b93c ffab c6bd aa8e 463d
00000060: 80eb 43bb 098e 4f3c 1812 5cbd 48b5 92bc
00000070: 506e 5f3d f60e 23bd ae39 fb3d 168d 7c3d
00000080: adac 803d 409c 7cbd f54a 733d dac1 353d
00000090: 267e 243c 5361 d93d 24f8 a33d 54d7 89bd
000000a0: 008a bd3d 4699 39bd d5aa 5f3d 9492 f33d
000000b0: 05d0 b7bd e4ad 053e cb6b de3d 812a ed3c
000000c0: bcc7 c13d 1e7a 8c3d 10ff 4f3d 1909 943c
000000d0: c0a2 f9bd afb1 1cbc a282 b9bd 1e8b 88bd
000000e0: 30f8 993d ce16 c4bd 64a5 173d 545b ffbd
000000f0: 1028 823d 32d1 ebbd dc05 023e f849 723d
00000100: cd97 eabc 628b 7dbd ea61 02be 3ba6 98bb
00000110: bcd3 89bd c8af 093e 643b 513d 3512 c0bd
00000120: 4eda fd3d 0c7c 3dbe fc77 a83d 7aa3 a33d
00000130: 5723 003e fd64 973d 6d3c a13a 1e0e 833d
00000140: b288 dc3d 70d3 bbbd 502d b9bd b0af e93d
00000150: 10a6 52bc 204b aabc 2d97 883d 7a87 6ebb
00000160: 8078 3a3c f3e8 90bd 6093 bfbc a856 0b3d
00000170: 6c2e 54bd a6d2 9f3d 19f1 7f3d 07d2 5a3d
00000180: d611 04be 0069 b03d 5bd5 edbd 9e31 e33c
00000190: 6933 683c 42e5 1b3d b6fe 8a3d 28ec cc3c
000001a0: 5004 e9bd 436e 0e3e 9ea8 633d 5000 593d
000001b0: 9771 2abe c079 46bc 9863 67bc 5f16 8a3d
000001c0: 048b 11bd 66bf 1cbe eac5 83bd a0b3 ddbd
000001d0: a27f a0bd 9080 263b e3f5 b2bd 622b 983d
000001e0: b7f2 883d fe78 b93b 946b 3bbd 50e3 b2bd
000001f0: b6ae c93d 40d4 33bd 2e8a 7c3c b492 f6bd
00000200: c4d9 6bbd 1036 c8bd d026 e03d f874 58bd
00000210: 421b fc3d ac68 093d 5ae4 8c3d 8869 aabc
00000220: c0d2 0abb 6e37 ab3d 50df 343d 80ae 4a3b
00000230: c838 91bd 9a4b efbd 2823 af3d 36dd d73d
00000240: 3cc4 61bd 7e9f 843d 0087 1fbc 3a9e cc3d
00000250: ec71 473d da38 d03d 9cd8 3a3d 12ac cc3d
00000260: 9c77 783d f025 1f3c 001e 75bb 8024 a5bd
00000270: 76e6 a93d 2c6b be3d 2cf0 c13d 4c89 fcbd
00000280: 8287 ea3d 2655 933d b20e c5bd 6c45 9dbd
00000290: 0422 e53d c2cd a73d d862 c83c 94f6 23bd
000002a0: 4aae bbbd b82b b83d 569d cf3d 2490 393d
000002b0: c463 edbd 208f 8ebb dc5a e6bd b8f4 b13d
000002c0: 4eba 993d bc03 e83d 00f2 2a3d 0ee4 f33d
000002d0: 8c4d 5fbd 4232 8b3d dc72 973d f6d9 f4bd
000002e0: 704d cfbd d8e5 0abd 6475 40bd f690 aebd
000002f0: 48c4 cfbd 8248 e8bd 30b0 c4bd d896 e73c
00000300: e59d 9f3d c515 9b3c 5f52 d8bc 9006 a93e
00000310: 5025 13bc 8440 9ebd 779a 5ebd c6ce a13c
00000320: 0708 e63d 034a 2bbe ac2a ccbd bab4 8ebd
00000330: 374e e4bd 20c1 eabd 8553 d0bd 9aee c33d
00000340: c64b fb3c 77d2 07be f2e4 acbd 2ce3 63bd
00000350: e20b e43d da7c b8bd 03aa cbbd b771 1dbc
00000360: 8016 0bbb 48cc fbbd 5030 aebd c068 9fbd
00000370: b836 9d3d 79ce b03d 500c 1c3d 7cc9 1e3d
00000380: 29bd e5bd c002 7dbb 4296 a23c b4ff 7a3c
00000390: e12d d8bd dadd 4f3c 763f 05bd 0c3b 293d
000003a0: 5473 74bd 99f7 ef3b 9d18 853d c889 a33c
000003b0: fb09 a6bd a66e 4bbe 2f18 44be 6578 56bd
000003c0: 12e0 b13d b632 89bd 9a65 d63d 32f5 e4bd
000003d0: 1046 023c cc3b 38bd 2254 29bb c079 3b3c
000003e0: b4b1 f93c e1bd 00be 094e 11bd 74bf fa3d
000003f0: 18f7 363d ba89 c13d 7307 22be 7832 bdbd
-0.056242816 0.075759545 0.24922399 0.6878228 -0.02878268 -0.069758095 0.11062982 0.04046696
0.2208053 0.143314 0.12508444 0.0201118 0.03177589 0.02898761 -0.026048696 -0.13196442
-0.10601255 0.14113975 -0.015020788 0.0734081 -0.035611033 0.022655785 -0.097007744 0.0484759
-0.0029895008 0.012668141 -0.053728193 -0.017908707 0.05454856 -0.03980919 0.12266861 0.061657988
0.06282935 -0.06167245 0.059397656 0.044374324 0.010039842 0.10614266 0.080063134 -0.06730524
0.09254837 -0.04531219 0.054606277 0.11893192 -0.089752235 0.13054615 0.108604036 0.028950932
0.094619244 0.068592295 0.050780356 0.018070744 -0.12189245 -0.009563847 -0.09058119 -0.066671595
0.07518041 -0.09574662 0.037022963 -0.12468591 0.063552976 -0.1151451 0.12697548 0.059152573
-0.028636837 -0.061900504 -0.12732664 -0.004658488 -0.06729838 0.13445961 0.05108203 -0.09378473
0.12395154 -0.18504351 0.0822601 0.07990165 0.12513481 0.07392309 0.0012301333 0.06399177
0.1076826 -0.09171188 -0.09041846 0.11410463 -0.012856975 -0.020787776 0.066694595 -0.0036396668
0.0113812685 -0.070756815 -0.023385704 0.03401819 -0.051802084 0.0780385 0.062485788 0.053422954
-0.12897429 0.08613777 -0.1161296 0.02773362 0.014172413 0.038060434 0.067868635 0.025014952
-0.11377776 0.13909249 0.055580728 0.052978814 -0.16644894 -0.012113988 -0.014122866 0.06742548
-0.035532966 -0.15307388 -0.064342335 -0.108252764 -0.07836844 0.002540622 -0.087383054 0.074301496
0.06686919 0.0056601753 -0.04575689 -0.08734763 0.098477766 -0.04390359 0.015413804 -0.120397
-0.057580724 -0.097759366 0.10944903 -0.052845925 0.123098865 0.03354709 0.06879492 -0.020802274
-0.0021182746 0.08360182 0.04415828 0.0030926764 -0.07090908 -0.11684342 0.085516274 0.105402395
-0.055118784 0.06475733 -0.009736776 0.09991117 0.04869263 0.101670936 0.04561673 0.09993757
0.060660943 0.009713635 -0.0037401915 -0.080636024 0.0829591 0.09297785 0.09469637 -0.12330875
0.11451627 0.07193975 -0.096219435 -0.07679257 0.111881286 0.08193542 0.024461195 -0.040030077
-0.091641024 0.08992714 0.10137431 0.04530348 -0.115912944 -0.004350558 -0.11247799 0.086892545
0.07506238 0.11328837 0.041734695 0.11908732 -0.054517314 0.06796695 0.073949546 -0.11955635
-0.10122192 -0.033910602 -0.046986952 -0.08523743 -0.101448596 -0.11341955 -0.096039176 0.02827017
0.07793788 0.018931279 -0.026406465 0.3301282 -0.008981064 -0.07727149 -0.054346528 0.019751918
0.11232 -0.16727452 -0.099690765 -0.069680646 -0.11147731 -0.11462617 -0.1017218 0.09566994
0.03067578 -0.1326388 -0.08442105 -0.05563657 0.11135079 -0.090081885 -0.099445365 -0.009609631
-0.0021223128 -0.12294823 -0.08505309 -0.07783651 0.076764524 0.086331315 0.03809768 0.03876637
-0.1121772 -0.0038606375 0.01984704 0.015319753 -0.10555626 0.012687171 -0.032531224 0.041316077
-0.059680298 0.007323217 0.06498835 0.01996316 -0.081073724 -0.19866428 -0.1914985 -0.05236091
0.08685316 -0.066991255 0.10468598 -0.1117958 0.0079512745 -0.0449789 -0.00258375 0.011442602
0.030480243 -0.12572433 -0.03547481 0.12243548 0.04466924 0.094500974 -0.15823154 -0.09238142

fc3.bias f4 [32]
00000000: a6be a03e 1689 21bd 4413 f9bd 5c60 c8bd
00000010: 3b0e cabd c25e b6bd 5ed0 aabd 92d2 a6bd
00000020: a2fe e5bd f64c 8fbd 770e aabd d0ba 0e3c
00000030: 8e44 26bd b834 76bd 1481 a5bd a3f5 813c
00000040: 1305 113d 86ef ccbd 1aea acbd e683 f4bd
00000050: ed85 c1bd b20d f4bd e931 7dbd 044b 9dbd
00000060: c68f c0bd edb6 dcbd 7a58 843e 9630 f8bd
00000070: f48a 06be 7bf4 26bd 563f 8f3b 9912 56bd
0.31395453 -0.039437376 -0.12161878 -0.09784004 -0.098659955 -0.08904792 -0.08340524 -0.08145632
-0.11230208 -0.06997101 -0.0830354 0.008711532 -0.040592723 -0.06010887 -0.0808126 0.015864199
0.03540523 -0.10006623 -0.08443089 -0.1193922 -0.094493724 -0.11916675 -0.061815176 -0.07680324
-0.094024226 -0.10777078 0.25848752 -0.12118642 -0.13138944 -0.0407605 0.004371564 -0.05226383

output.weight f4 [1, 32]
00000000: 417d 36be 6916 7e3b 327b b03d 322d 5bba
00000010: bef0 cf3d bc7e 99ba cb14 74bd 223c 6637
00000020: 791a 933d 76a7 c13a f9c9 5c3b e7f5 923d
00000030: c2dc f43b 78d8 de3d eda2 38bd 3974 e53d
00000040: 6823 983b 40e7 7e36 bfe7 f83d 1a09 d33d
00000050: e95b a0b8 a8df e2bd 6d2f babd 0e35 323e
00000060: d1b0 1f3c cffc 483c 380d 7fbe 1546 e13d
00000070: 0ebe 4f3a 66d0 3e3d 6d86 b03d f0a7 963b
-0.17821218 0.0038770682 0.08617248 -0.00083609216 0.1015334 -0.0011710743 -0.059590142 1.3723069e-05
0.07182784 0.0014774639 0.003368972 0.071758084 0.0074726054 0.10881132 -0.045077253 0.11203808
0.0046428926 3.7983555e-06 0.12153577 0.1030447 -7.646514e-05 -0.11077815 -0.09091077 0.17403051
0.009746746 0.0122673055 -0.24907386 0.10999695 0.00079247437 0.046585463 0.0861939 0.0045976564
