q_network.pth (torch, 352344 bytes, 7 tensors)

fc1.weight f4 [128, 600]
00000000: 2a9e 403d 4727 833e 042a 8b3d ea14 85be
00000010: 4b1b 1d3e 7c99 7bbd eaf9 893d 0900 7e3e
00000020: db9c 16be 0010 153c 4601 643e 2601 abbe
00000030: a7c3 563e 5c56 973e d590 2c3e 1d66 25bc
00000040: 1566 953e 5472 91be 7cbc 563e 79c0 24be
00000050: 1247 123e 3c2d 4bbe 962d e2bd a27d 233e
00000060: 5e62 a4bd e4e5 8a3e a8c4 cc3d 90b1 253e
00000070: 0a72 34be d568 073e c135 e4bd 8e84 e63d
00000080: b967 d2bd d8b6 11be 0ca2 083e 24db 813e
00000090: 23ff f2bd be31 7bbe cc04 643c 2b07 52bd
000000a0: a3bd 3dbe 36c8 1dbe d041 39be cd13 9bbd
000000b0: cbe7 133d b773 e43e 587b 63be e456 873e
000000c0: 5921 373e 2e4b a9bb 9a81 4b3d dbc7 573e
000000d0: 5e50 533d 40f0 263e c419 323e 767e 683e
000000e0: 5bfc 27be 7bcc a93e 018c c13e 3455 8abe
000000f0: 195c 133e 6d40 31be c633 0abe 1888 0f3e
00000100: e421 0f3e 606e 603e fe08 793e cd31 4a3e
00000110: 2703 8bbe f817 353e 62ac 07be 4adf 0f3e
00000120: 7deb 9e3d 3a48 74be 02fa 89be ef51 993e
00000130: 508a 8cbe fed6 f1bc 2da1 ce3d 039b 463d
00000140: 7835 6dbe e8c3 49bc e5d6 c0bd 66a0 223e
00000150: 4248 343e 6629 4d3e 899f b1bd 616d 6e3e
00000160: 6829 733e ef3e 8bbd 5e8b 153e 3c9e f9bc
00000170: f3b0 29bd 15f0 d33d 7e10 503e 7a1f 693e
00000180: 71cc 4c3e 5ae8 153e 004b 8bbe 6287 b2bd
00000190: 417e bd3d a1e8 5a3e 0b57 65bd 8263 163e
000001a0: e887 cc3d 04ae 53be 2b70 133e f596 7e3e
000001b0: 6737 5cbe 61fe 27be 75bd 70be 853c 11be
000001c0: 2018 f23d 3071 203a ae29 a0ba d561 a3bd
000001d0: 76ab 17be 7939 a23d 275b c43d 7ccd 8abe
000001e0: ae6f c33d 0d08 543e d2fb c23d d29e 85bd
000001f0: b7ff 38be e65e 5d3d 2a25 e2bc 5302 65bd
00000200: c7e2 a93d ff22 4f3e 2d97 513a 584b 483e
00000210: a8dd 463d e194 c73d 137f f13d 5c1f 2d3e
00000220: 20f3 863d b731 183d 6a56 55be add8 7dbe
00000230: 1819 a93d 0004 63be b148 2b3d 1330 623e
00000240: 7beb c2bd 961e b83d 6ce2 9abd 036d 3f3e
00000250: 400a 27bc 86ae fbbd b876 833e 8054 aabe
00000260: 4bd6 3d3d 33ca a7bc 77ca 8cbd dddf 03bd
00000270: f47f fd3d 46ff 8dbe d970 13be 41bb 663e
00000280: 57c3 703d b299 e83d dedd 62be 79b1 27be
00000290: 662d a03d b1a6 173e 5a04 b23d 240b 3b3e
000002a0: 7dc0 41bd 5718 653e bca1 c4bd 3025 81bc
000002b0: da86 293e 30be 89bc c6a0 d1bc ae3c 87be
000002c0: ae8a 023d 240e 9bbd 1bcf a93d d3a2 a1bc
000002d0: 2f04 1ebd e2b2 b13c 5e60 2ebe 2836 6dbe
000002e0: 4d1c 78be 187a 6ebd aeac 323e b4ab b03e
000002f0: 6b68 083e d8d1 d53b fec5 49bc 2881 a03e
00000300: effa 93be 742d 803e 91e7 6e3e a7f4 34be
00000310: 308c ccbc 6399 74be 6c3e 593e b833 11be
00000320: 64cc 15bd d5ee 47be 3b40 df3c 51db 8dbe
00000330: 638d d83d 7c2b 45be 2266 233e 74cc 413e
00000340: 91cc 3c3e 0a42 863e b3a4 29be 98cb a6be
00000350: 0cb2 17be 7d52 5fbe 7431 fc3d 62fb 753e
00000360: ed6d 08be 71f3 39be ec7f 1fbe 1ec2 00be
00000370: 07dc e4bd b3c6 a33d acbe 3cbe 2fb6 1b3e
00000380: ba45 1cbe d28c da3c b24a b03e eae1 c93d
00000390: ab02 92be 9e3c 85be 112d 1e3e bf81 afbd
000003a0: 132f 79bd a319 7d3e f78f 43be 084c 0cbd
000003b0: cf28 e23d 413e ebbd b718 103e 0a4d 4dbe
000003c0: 849b 2b3c 28bd cd3d a8f8 28be 0656 45bd
000003d0: d254 153e 02b6 8bbe 1fac a53d dc3f 3f3d
000003e0: 98df 613e 3697 b83d d23f 0bbe 74bd 87bd
000003f0: 61e5 7e3e d6d2 0ebe 375f ffbc 29d4 7bbe
0.047025837 0.25615904 0.06795123 -0.2599252 0.15342443 -0.06142567 0.067371204 0.24804701
-0.14708273 0.009098053 0.22266111 -0.33399314 0.20973073 0.29558074 0.16852124 -0.0100951465
0.29179445 -0.28407538 0.20970339 -0.16089047 0.14284924 -0.19841474 -0.11043851 0.15965894
-0.080265746 0.27128518 0.09998447 0.16181016 -0.17621627 0.13223584 -0.11143065 0.112557516
-0.1027369 -0.14229906 0.13343066 0.25362504 -0.1186507 -0.24530694 0.013917159 -0.051276367
-0.18529372 -0.15408406 -0.18091512 -0.07572136 0.036109727 0.44619533 -0.2221502 0.2643348
0.17883815 -0.005166433 0.049684145 0.21072333 0.051590316 0.16302586 0.17392641 0.22704491
-0.1640486 0.3316382 0.37802127 -0.2701813 0.14390601 -0.17309733 -0.13496312 0.1401676
0.13977772 0.21917105 0.24319836 0.1974556 -0.27150843 0.17684925 -0.13249353 0.14050022
0.077597596 -0.23855677 -0.26948553 0.29945323 -0.27449274 -0.029521462 0.100893356 0.048487674
-0.23164928 -0.012314774 -0.09415988 0.158815 0.17605689 0.20035324 -0.08673007 0.23283912
0.23746264 -0.06799113 0.14603946 -0.03047096 -0.041428518 0.103485264 0.20318791 0.22765914
0.19999863 0.14639416 -0.27205658 -0.087172285 0.09252597 0.21377803 -0.055991214 0.14686397
0.099868596 -0.2067185 0.14398257 0.24862273 -0.2150551 -0.16405632 -0.23509772 -0.14183243
0.11821008 0.0006120382 -0.0012219453 -0.07977644 -0.14811501 0.07921118 0.095876984 -0.27109897
0.095427856 0.20706196 0.09520687 -0.06524433 -0.18066297 0.05404558 -0.027605612 -0.05591042
0.082952075 0.20228194 0.0007995244 0.19559991 0.04855123 0.09745193 0.117918156 0.16906494
0.06589341 0.037156787 -0.20833746 -0.24789687 0.082567394 -0.22169495 0.04181737 0.22088651
-0.095175706 0.08990209 -0.07562718 0.18693928 -0.010195315 -0.12289147 0.25676513 -0.33267593
0.046346944 -0.020482158 -0.068745546 -0.032195915 0.12377921 -0.2773382 -0.14398517 0.22532369
0.05878004 0.1135744 -0.22154948 -0.16376294 0.07821159 0.14809681 0.08692236 0.18265969
-0.04730271 0.22372566 -0.09601161 -0.015764803 0.16555348 -0.016814321 -0.025589358 -0.26413482
0.031870537 -0.075710565 0.08291455 -0.019730961 -0.03857821 0.021691743 -0.17028949 -0.2316519
-0.24229546 -0.058221906 0.17448685 0.34506 0.13321082 0.0065252595 -0.012315271 0.31348538
-0.28902385 0.25034678 0.23330523 -0.17671452 -0.02496919 -0.23886637 0.21215218 -0.14179885
-0.036571875 -0.19524701 0.027252307 -0.27706388 0.105738424 -0.19254869 0.1595693 0.18925649
0.18437411 0.2622226 -0.16566734 -0.32577205 -0.14814013 -0.2180881 0.1231412 0.24021676
-0.13323183 -0.18159272 -0.15576142 -0.1257405 -0.111747794 0.07996883 -0.1843211 0.15206216
-0.15260974 0.026678476 0.34431988 0.09857543 -0.2851766 -0.2602281 0.15446879 -0.08569669
-0.06083591 0.24716811 -0.19097887 -0.034252197 0.1104294 -0.11486483 0.14071928 -0.2004892
0.0104740895 0.10045844 -0.16501105 -0.04817774 0.14583138 -0.27287298 0.0808947 0.04669176
0.2205795 0.09013216 -0.13598564 -0.06627932 0.24892189 -0.13947615 -0.031173332 -0.24592651

fc1.bias f4 [128]
00000000: 59de 273e 9cb4 353e 1bdd bebc 8ca0 363e
00000010: f608 eabc 28bf 3d3e af62 19bd 7047 b3bc
00000020: 748f 00bc 2165 15bd 2265 31bc 1bf0 e2bb
00000030: d358 92bb 10c8 273e c91c 4b3e 30fd 02bc
00000040: 94f9 bcbc c315 453e 73c8 413e f876 353e
00000050: 07ee 15bd 437d d0bc fabd 4e3e 27fb 1cbc
00000060: 0f3b e4bc d049 1e3e 269d ecbb 208d 00bd
00000070: c9e9 24bd 286e 333e 0c54 acbb e13d b2bb
00000080: 0ccf dabc d613 d9bb 23c5 093e cdb5 15bc
00000090: c997 443e d0d6 debc 76c1 93bc 75b9 97bc
000000a0: 2a3f 303e 9722 1fbd 1d88 8cbb efff 463e
000000b0: f0b1 f33d 5bd5 d9bb 19df 9fbb 2983 243e
000000c0: 65a0 313e 9b76 403e 8bf0 3b3e 511d 78bc
000000d0: 11cf 06bc 9ae6 383e fb73 15bd 5bd7 90bc
000000e0: 9647 18bd 6021 a9bb 1563 81bc 2e9b 86bc
000000f0: bce4 ea3d 83dc 473e c37d 8ebc 829e 293e
00000100: fdf2 04bc 4429 1abd 7c6f 29bc 397c 463e
00000110: 9689 d3bc 9a6d 2fbb 7dbf 3b3e f537 e0bb
00000120: 7d05 00bd a8e6 7bbc de97 f3bc 26c3 253e
00000130: f681 383e 49ba 563e a56f 2a3e a9dc 1ebd
00000140: 6e5e 373e c421 8fbc 4a75 03bd 9386 d2bc
00000150: 94cc b7bb 81ab 873e 46c6 4c3e 7e6e 92bc
00000160: c682 173e a751 393e e2f9 423e d475 033e
00000170: a9f7 d23d 51bd 0abc dbb2 4a3e 92eb debc
00000180: ded1 08bd 1166 503e d7c4 a33d 5aab 2d3e
00000190: fc0d 183e 66cc 86bb 05fd 4c3e ad30 283e
000001a0: 01bc 34bc ca3e 26bd 5728 863e 7fba 65bc
000001b0: 1a5a 51bc 1a54 c4bc aa36 81bc 05df 053e
000001c0: 733d 03bc ec13 383e 47f8 293e 72fc 313e
000001d0: ca12 443e a63e dfbb 774e 89bc 11bb 4d3e
000001e0: 5793 323e b996 3b3e d888 383e 4a9d 03bd
000001f0: b9ba fcbb b5f8 a4bc 8d26 e2bb ca9e 0bbd
0.16393413 0.17744678 -0.02329879 0.17834681 -0.028568726 0.18529952 -0.037447628 -0.02188465
-0.007846702 -0.036473397 -0.010827335 -0.0069255955 -0.004466155 0.16384912 0.198352 -0.007994935
-0.023068227 0.19246583 0.18924122 0.17721164 -0.036603954 -0.025450354 0.20189658 -0.009581364
-0.027860193 0.15457845 -0.007220882 -0.031384587 -0.040262017 0.1752249 -0.0052590426 -0.0054395054
-0.026710056 -0.006624679 0.13454108 -0.009137583 0.19198526 -0.02720204 -0.018036585 -0.01852105
0.17211595 -0.038851347 -0.004288687 0.19433568 0.11899173 -0.0066477484 -0.0048788902 0.16065659
0.17346342 0.18795244 0.18353479 -0.015143708 -0.008228079 0.18056718 -0.03648756 -0.017680814
-0.037177645 -0.0051614493 -0.015794316 -0.016431417 0.11469409 0.19517712 -0.017393952 0.16564372
-0.008114574 -0.03763701 -0.010341521 0.19383325 -0.025822442 -0.0026768208 0.18334766 -0.006842608
-0.031255234 -0.015374817 -0.029735502 0.16187724 0.18018326 0.209695 0.16644152 -0.038784657
0.17907116 -0.017472155 -0.032094277 -0.025698936 -0.0056091044 0.26498035 0.1999751 -0.017874952
0.1479598 0.18097554 0.19040635 0.12837917 0.10301144 -0.008467988 0.1979479 -0.027211938
-0.03340327 0.20351435 0.079965286 0.16959897 0.14849085 -0.0041137217 0.20018394 0.16424818
-0.011031152 -0.040587224 0.26202652 -0.014021515 -0.01277783 -0.023965884 -0.015773136 0.13073356
-0.008010256 0.1797635 0.16598617 0.17381456 0.19147792 -0.006812888 -0.016761048 0.20090891
0.17439018 0.18319215 0.18020952 -0.032132424 -0.0077126888 -0.020138124 -0.0069015683 -0.03408698

fc2.weight f4 [64, 128]
00000000: 101f 5a3e 8620 c03d cf61 abbc a79f 553e
00000010: a7f0 4bbd 5d59 fd3d 444d ac3d 5439 acbd
00000020: f1ac 763b bc9a 89bb 504b 27bd afdb a13c
00000030: db8e 8b3d a5c3 2f3e 8490 623e 514f 8a3d
00000040: 2440 ad3d 09a1 6a3d 6306 153e 5d2f 583e
00000050: 8d1b 25bd 8306 89bd b451 643e 9abd 4a3d
00000060: 5cdb a9bd 4032 ef3d 61d1 6cbd ed7a 223d
00000070: 80e3 5fbd 53d0 653d e2a7 7abd 2d2a 5a3d
00000080: 9179 9b3d d76e 833d fd8c cf3d 0752 06bd
00000090: 1d02 c13d 3181 373d fddf 65bd 8cda 7fbc
000000a0: f8d7 133e 9bd4 1abc ebe0 a9bd f08b 393e
000000b0: cca9 353e c9b8 163d e168 96bd 9f66 4d3e
000000c0: d937 033e 2e0d 573e 63da 883d e272 833d
000000d0: a48f 2dbd 6bfb 813d f87d 8f3d 4bfc 9abd
000000e0: 6cf1 50bd 4cc7 de3c a435 523d afb1 84bd
000000f0: f5f5 253e 1c42 d93d 3862 1cbc 5fdf 343e
00000100: 3d6b a83c cbce a0bd d402 9e3d 2d4e 123e
00000110: 32c5 113d bded 18bd e392 803d cc9c a43d
00000120: d4ed 07bc 0045 a63a 1c7f 363d 01b8 b33d
00000130: a499 463e 6fff 483e dd36 553e 6fca b93c
00000140: 93a7 403e 6758 7abd b384 733c 97b6 973d
00000150: 7bc7 1ebd 6406 403e 21bc 183e 7883 873d
00000160: 61f9 2f3e 6162 3c3e 8611 823d d09e 293e
00000170: 508c 9e3c 9051 e3bc 07cf 4a3e 41cc a33d
00000180: d4db 3ebd 184a 293e 88fb 013e 8247 4b3e
00000190: f95f ca3d 43fa 393c 72a9 f43d 8096 463e
000001a0: f4cd 33bc 62dc 88bd a41f 8c3e 3c58 973c
000001b0: 4d61 a33c 8f9c 783d fd4e aebc 3d16 023e
000001c0: c7a3 b6bc 4f64 123e 0255 483e f486 323e
000001d0: 9d34 373e 3edd c93c 6663 27bd 0265 ba3d
000001e0: d2e7 2f3e 7667 523e a4a3 333e cff0 1d3c
000001f0: 2d60 823c 9358 d5bb 15f2 e6bb e7e8 353d
00000200: 6a27 2b3d 5fb9 3d3c 9612 76bd 7b74 ae3c
00000210: 5b09 6ebc f647 f73c d4db 0ebd eea5 9bbd
00000220: e0f6 c23b 31c3 a5bd 7ea5 64bd e488 6a3d
00000230: 0b03 c33c e002 843c c5d3 433d d135 35bd
00000240: 8f4a d6bc 6a04 dd3c 4b89 45bb 3c1b 523d
00000250: b9c3 7dbd 5751 f83b d1b4 69bd 73df bbbc
00000260: 5ebd cbbc 7849 1c3d fd04 a63d 5321 fcbb
00000270: 1e28 65bd f887 97bd 8070 71bd a1cf 92bd
00000280: da3e 57bd 5c39 90bd 3fe6 51bd 6e59 803d
00000290: 214f 633d ae2c 8a3d c00b 64bc 0cf1 973d
000002a0: 23d2 75bd eaeb f73c b927 233d 2fa3 a1bd
000002b0: a642 093d bf27 883c 8bb0 8cbd b5ad c0bd
000002c0: 1920 8039 2039 97bc b138 973d e47d ad3d
000002d0: bfad b0bd e1dd 66bd ec41 bc3b f869 903d
000002e0: 9073 903c 5083 a4bd a725 8f3d f6b8 1e3c
000002f0: cfc2 3abd 6a35 39bd 1915 a6bd f982 92bd
00000300: bb17 ad3d 8d33 0dbd a664 4dbd 910d c73c
00000310: 73a6 803c fe06 20bd 005a 003d 16ae 433d
00000320: 7540 c6bc 5c53 a23c fb44 753d b204 a839
00000330: ff46 b13a 9fb8 b1bb 7412 2c3d e436 dfbb
00000340: f61e 863d 6ea3 393d 7007 ae3b 265b 29bc
00000350: dfdb 5e3d bbd8 b13c 9aec 90bd 3d80 8c3d
00000360: df77 86bd 9db0 883d a2ef 64bd b91e bdbd
00000370: 49ff 763d 6e8b 2f3d d2b9 83bd 7c50 013c
00000380: 1f9e 493d 60ed 17bd 55a9 88bb 50e2 e83c
00000390: 09de 8ebd a31a a8bd 2f32 f93c df58 ab3c
000003a0: 0ba4 8c3d 91e1 37bd 3084 2fbd 6d7a 07bd
000003b0: 5483 943d 93db a03d 5172 c43c 795a 503b
000003c0: 6b92 8a3c b964 2a3d 042c f73a c1ee 6cbd
000003d0: ff65 50bd 2186 333d 4621 90bd 1612 f23c
000003e0: 3d1f 043d 3aec 7c3c fa93 cbbd 40c6 29bd
000003f0: eb89 8abd 801f 703d 7140 38bd 498e adbd
0.21300912 0.09381203 -0.020920662 0.20861684 -0.04979005 0.1237056 0.08413175 -0.08409372
0.0037639702 -0.004199354 -0.040843308 0.019758074 0.06814357 0.17164476 0.22125441 0.0675341
0.084594995 0.05728248 0.14553218 0.21111818 -0.040309478 -0.06690695 0.22296792 0.049497224
-0.082937926 0.11679506 -0.057816867 0.039668012 -0.05466032 0.056106877 -0.06119526 0.05326288
0.07591546 0.064176254 0.10134313 -0.03279307 0.09424231 0.04480094 -0.056121815 -0.0156160705
0.14437854 -0.009450103 -0.08294853 0.18119788 0.17740554 0.03679732 -0.07344223 0.20058678
0.12814273 0.21001121 0.06682279 0.064183965 -0.042373314 0.06346782 0.070064485 -0.07567652
-0.051011488 0.027194642 0.051320687 -0.06479203 0.16207106 0.106083125 -0.009544902 0.17663334
0.020558948 -0.07851943 0.07715383 0.14287634 0.03558845 -0.0373361 0.062780164 0.08037719
-0.008296449 0.0012685359 0.044554815 0.0877533 0.19394547 0.1962869 0.2082171 0.022679536
0.18813924 -0.061119463 0.014863181 0.07407873 -0.03876446 0.18752438 0.14915515 0.066168725
0.17184974 0.18396904 0.063509986 0.16564488 0.019354016 -0.027748853 0.19805537 0.07997943
-0.046596363 0.16532171 0.12693608 0.19851497 0.098815866 0.011351171 0.11946382 0.19393349
-0.010974396 -0.0668266 0.2736789 0.01847469 0.019943858 0.06069618 -0.021277899 0.12703796
-0.022294892 0.14296077 0.19563678 0.17434293 0.17891164 0.02464163 -0.040866278 0.09101297
0.17178276 0.2054728 0.17542893 0.009639933 0.015915 -0.006510803 -0.0070479014 0.044411566
0.041785635 0.01157984 -0.06007632 0.021295777 -0.014528598 0.03018568 -0.034877613 -0.07600008
0.00594984 -0.080938704 -0.05582189 0.057259455 0.023805162 0.016114652 0.04780938 -0.044240776
-0.0261586 0.026979644 -0.0030141647 0.051295504 -0.061954234 0.007578056 -0.057057206 -0.022933697
-0.02487057 0.038156003 0.0810642 -0.0076944022 -0.05594646 -0.07398981 -0.05894518 -0.07168508
-0.052550174 -0.070421904 -0.05124497 0.06267057 0.055495385 0.06746803 -0.013918817 0.07419023
-0.060014855 0.03026386 0.039832804 -0.07892453 0.033510827 0.016620515 -0.068696104 -0.09408132
0.00024437977 -0.018459857 0.0738386 0.08471277 -0.086268894 -0.056363944 0.005745163 0.07051462
0.01763323 -0.08032858 0.069896035 0.009687653 -0.04559594 -0.045216955 -0.08109493 -0.07153887
0.08451792 -0.03447299 -0.050144814 0.024298461 0.01570437 -0.03906917 0.03133583 0.047773443
-0.024200657 0.01981514 0.059880238 0.00032046955 0.0013525187 -0.00542362 0.042009786 -0.0068119634
0.06548874 0.045321874 0.005310945 -0.010336673 0.054408904 0.02170979 -0.07076378 0.06860397
-0.06565832 0.06674311 -0.055892594 -0.092343755 0.060302053 0.04285758 -0.06431927 0.007892724
0.04922306 -0.037091613 -0.0041705766 0.028428227 -0.069759436 -0.082082056 0.030419437 0.0209164
0.06867226 -0.04489285 -0.042850673 -0.03307574 0.07251611 0.078543805 0.023980292 0.0031792207
0.01691552 0.041599963 0.0018857722 -0.05784488 -0.05087852 0.043829087 -0.070375964 0.02954964
0.032256354 0.01543718 -0.09940334 -0.04144883 -0.06764587 0.05862379 -0.04498333 -0.08474404

fc2.bias f4 [64]
00000000: 9491 2e3e 1432 6fbc cdf3 6c3b d974 7f3e
00000010: 5c4c b2bb 9330 293d 4312 98bd f30a 78bd
00000020: bed4 8d3c 88fd 2d3d 5b2c 1e3d 36a9 3e3e
00000030: d699 adbc 10af 1abd 0d38 65bd 786a 64bd
00000040: 4a71 c6bc a41e 643e 04bc 95bd 80d3 9ebc
00000050: 115e 4e3a 3ca0 c33b 0650 6c3e 25c3 4fbd
00000060: aba0 033c e3ac 3c3e ab76 013e baa5 b2bc
00000070: e944 8b3e 51ec 5fbd bdd9 cb3c 5a89 103c
00000080: 7bbb c4bc 17ce 7c3e ecb2 523a 2c9e 8bbd
00000090: c7ab 803e 8084 8bbd d028 913e 9f88 29bd
000000a0: e5c3 7e3e 920a aebd f8ff 743e 7e15 3fbd
000000b0: a99f 9ebd 64ec 8b3e 89dd 2abc 3767 b5bc
000000c0: 3639 43bd 471d 883e f540 7dba 44bf b1bd
000000d0: 6bc6 d23c 9974 733e 037b a9bc e55d 683e
000000e0: 6baf 293d 2790 cdbb 5e57 adbc eedd 593b
000000f0: 374a 6e3e 7ed0 3d3e 9af6 8bbd 296e 80bd
0.17047721 -0.014599342 0.0036156059 0.24946918 -0.0054412317 0.04130609 -0.07425358 -0.060557317
0.017313357 0.042478114 0.03861652 0.18619236 -0.021191519 -0.03776461 -0.055961657 -0.0557656
-0.024223942 0.22277313 -0.07311252 -0.01938796 0.00078722934 0.005970029 0.23077402 -0.050723214
0.008033912 0.18425326 0.12642924 -0.02180754 0.27201012 -0.05466873 0.0248841 0.00882181
-0.024015179 0.24687992 0.00080375257 -0.06817278 0.25131056 -0.06812382 0.2835145 -0.041390058
0.24879415 -0.0849811 0.2392577 -0.046651356 -0.077452965 0.2732879 -0.010428795 -0.022143943
-0.047661982 0.26584837 -0.00096608634 -0.08679059 0.025729379 0.23774947 -0.02068854 0.22692068
0.041427057 -0.006273288 -0.021159824 0.0033243853 0.23270498 0.18536565 -0.06834145 -0.062710114

fc3.weight f4 [32, 64]
00000000: 3154 3e3d 20a4 573c c7ed 7dbc a03c 473e
00000010: 3c41 1c3d 3e31 043d 18a7 6b3d 80f8 cdbc
00000020: 33ba c63b 6632 ba3c 2e10 11bd 1b38 013c
00000030: d094 4a3c a8f3 d0bc 64d9 783d a0db c5bb
00000040: fe3b e63d add6 8f3e 155c 0bbd e46f 993c
00000050: 88bf 003d 457b 373c e35f 5e3e acad 483d
00000060: c95a 91bd 91e5 4f3e 6c74 ba3d 80fc 0dbd
00000070: 19c0 8f3e 20df e33b ca6d a6bd a0b1 5c3c
00000080: 20b1 2dbc baed ba3d 7eb0 013e 6892 40bd
00000090: 283b 093e 6629 8f3d 2e9d 533e fcc3 cbbd
000000a0: 026b b13d 88c6 e03d 5d6c 173e 7ccf ecbd
000000b0: 64f5 d53d 6f31 293e 10f2 c2bc ae03 a7bd
000000c0: 9c7a 4e3d 148e 773e 3558 adbd 50cd 4d3c
000000d0: 5782 a7bc e99f 4e3e 405b c63c 217a 923e
000000e0: 9f6e 0e3e cfa5 8ebd f18c 38bd a01c 443c
000000f0: 8807 433d 349e 1b3e a824 d03c 3843 843c
00000100: b9e7 433e 962a 023e 5098 833d cfe1 253e
00000110: 2e7a a2bd a693 073e f083 1d3d 9022 a73c
00000120: 6790 c93d 5abf 0f3e 50db 013e 7ab6 ba3b
00000130: 1292 983d ced7 d83d 00b8 a1bc a4c7 abbd
00000140: d213 983d f596 013e ddc2 f2bc 64c4 03bd
00000150: 7878 ffbc 4d8e 0f3d ca23 703e 702a 98bc
00000160: bd90 f33d a0f3 b13c e38e 2a3e b398 aa3d
00000170: ab72 293e f459 71bd 8f35 9bbd e85e f0bd
00000180: 56c1 fc3d 0304 8d3e 2d2d 0c3e c0c3 353b
00000190: f58e 9a3d 2cc2 54bd 6772 aa3d 50af 823d
000001a0: 3b1f 833e 9c62 373d d68e 833e 0005 b73c
000001b0: 34ec d03d e678 433e 10ca 3c3c f0e1 a2bd
000001c0: 82f4 c43d d3ff 043e 7260 ae3d 748a 48bd
000001d0: ef34 f33c 859c f03d 40b9 303b 0ef8 4e3e
000001e0: 2b2e c8bd 379b 003e f7e5 5abd 9081 fdbc
000001f0: c70d a93d 4a9c 483e 8456 efbd e0fd a2bc
00000200: f2a2 b3bd 8085 65bc 3660 8b3d 90df d13c
00000210: d8e5 043d 28db c03d 4cbe 14bd 005d 573a
00000220: 78c7 5abd 70f6 c43d c897 f13c a463 11bd
00000230: b83d 273d b24f f6bd a098 eabb 3a3b c2bd
00000240: 080f bcbc 207b 953c f8f5 163d 408a 69bd
00000250: c867 80bc ca7c e4bd 9c06 1cbd d81a fcbc
00000260: 08a6 923c 9e5a 81bd f618 9f3d e06f a7bc
00000270: 2e14 b4bd 7ac7 aa3d bc20 fabd a021 3abc
00000280: 98f0 67bd 94b5 213d dc25 be3d 9a32 88bd
00000290: f6a1 aabd 6ade 823d 7e49 b53d 08e5 0abd
000002a0: 90b8 2c3d 3c13 c4bd 9483 213d b037 d43c
000002b0: 1c4a 6dbd 5e70 fb3d 0861 90bc 3e47 f0bd
000002c0: c2d1 dbbd a4eb 8f3d 6051 053c 9ef5 d3bd
000002d0: 8a97 a7bd 8614 f7bd 88ad 00bd bef0 febd
000002e0: e4eb 6fbd 88ff e53c a883 b73c f6e3 9bbd
000002f0: 54d6 1a3d b0cc 54bc f0c3 2cbd 82d2 bcbd
00000300: 82a4 933d db16 013d 87b9 afbc 47ea d43d
00000310: f4c5 5abd 8a8c d23c e809 ccbd 925c 94bd
00000320: 25bb 753c ffb5 2f3d 8917 373d 8683 aebb
00000330: 3a64 dcbd 6cd5 7d3d 9053 14bc fc58 163d
00000340: 44a8 14bd 4fb9 603e 1573 19be 8cb6 043c
00000350: 28da 1d3d 4bb9 93bd 64f0 683e 08df ea3c
00000360: c6ce c53d d7d8 dd3d 819f cfbc 8e3c dc3d
00000370: 4750 3f3e 0032 e9bd bd1f de3d 5071 c13d
00000380: 1016 f0bd 0baf d53b 9422 6f3d 2aca 86bd
00000390: e994 c33d 8091 52bd 6636 673e 2022 d8bb
000003a0: 8702 213e 5ae5 f9bd 4b40 5e3e 00be 733d
000003b0: 9c9b 46bd 9d96 3b3e 78db 94bc 9a0c b7bd
000003c0: 3053 2cbc a93d ee3d 43c2 4ebd 40f7 563d
000003d0: 8347 ae3d cb4a 293e 9c72 a6bd 7e4b 443e
000003e0: 645d 613d c397 47bc ba86 67bd 626d 92bd
000003f0: a454 b73d 0ee2 273e 8017 25bb 00bf c9bb
0.04646701 0.013161689 -0.015498585 0.1945672 0.03814815 0.032273524 0.0575324 -0.025142908
0.006064677 0.02272911 -0.03541582 0.007886912 0.012364581 -0.02550681 0.060754195 -0.006038144
0.11241911 0.28093472 -0.034023363 0.018730111 0.03143266 0.011198823 0.21716265 0.04899375
-0.07097394 0.20302416 0.09104237 -0.03466463 0.28076246 0.006954089 -0.08126409 0.0134700835
-0.010601312 0.09127374 0.12664983 -0.047014624 0.13401473 0.06990318 0.20665428 -0.099494904
0.08662988 0.10975367 0.14787431 -0.11563012 0.10447195 0.16522764 -0.023797065 -0.08154999
0.0504099 0.24175292 -0.0846409 0.012561157 -0.020447893 0.20178188 0.024213433 0.28608802
0.13909386 -0.06965219 -0.045056287 0.011969715 0.047614604 0.15197068 0.025408104 0.016145334
0.19131364 0.12711558 0.06425536 0.1619942 -0.0793346 0.13239917 0.038455904 0.020402223
0.09841996 0.14037839 0.12681317 0.0056980224 0.07449736 0.105880365 -0.019741058 -0.08387688
0.074256554 0.12655242 -0.029633934 -0.032169715 -0.031185374 0.035047818 0.23451152 -0.018574923
0.11892841 0.021722615 0.1665607 0.08329906 0.16547649 -0.058923677 -0.07578575 -0.11736852
0.123415634 0.27542123 0.13689108 0.0027735084 0.07546798 -0.05194299 0.08322602 0.063810945
0.25609764 0.044771776 0.25694913 0.022341251 0.10201302 0.19089088 0.011522785 -0.079532504
0.09616949 0.12988214 0.08514489 -0.048960164 0.029688327 0.11748604 0.0026965886 0.20211813
-0.09774431 0.1255921 -0.053441968 -0.03094557 0.08254581 0.1959087 -0.116864234 -0.019896448
-0.08771314 -0.01400888 0.0680546 0.025619298 0.03244576 0.09416801 -0.036314294 0.0008215457
-0.053412884 0.09617317 0.02949132 -0.035495415 0.040830344 -0.120269194 -0.0071593076 -0.09483953
-0.022956386 0.018247187 0.036855668 -0.05701661 -0.015674487 -0.11156614 -0.03809224 -0.030774519
0.017901435 -0.06316112 0.07768433 -0.020439088 -0.087929115 0.083388284 -0.12213275 -0.011360556
-0.056625932 0.039479807 0.09284565 -0.066502765 -0.08331673 0.06390078 0.08851908 -0.033909827
0.0421682 -0.09573981 0.039432123 0.02590546 -0.057932004 0.12277292 -0.017624393 -0.11732338
-0.107333675 0.07027367 0.008137077 -0.10349582 -0.08183201 -0.120644614 -0.031415492 -0.12448262
-0.058574572 0.028075948 0.022401646 -0.076118395 0.037802055 -0.012988254 -0.042179048 -0.09219839
0.07209112 0.031515937 -0.021450771 0.10396247 -0.05341144 0.02570178 -0.09962827 -0.07244219
0.014998232 0.042898174 0.04470018 -0.0053257374 -0.10761304 0.061971113 -0.009053126 0.036705956
-0.036293283 0.2194569 -0.14985307 0.008100163 0.03853813 -0.07213076 0.22747952 0.028670803
0.096585795 0.108323745 -0.025344612 0.107537374 0.18682967 -0.1138649 0.10845897 0.09445441
-0.11722958 0.006521111 0.058382586 -0.065815285 0.09549887 -0.05140829 0.22579345 -0.006595865
0.1572362 -0.122019485 0.21704213 0.05950737 -0.048488244 0.18319173 -0.018171057 -0.089379504
-0.01051788 0.116328545 -0.05047823 0.05248189 0.085097335 0.16532438 -0.08127329 0.19169423
0.055020705 -0.012182179 -0.05652497 -0.07149769 0.08951691 0.16394827 -0.002519101 -0.006156802

fc3.bias f4 [32]
00000000: 8481 953e 393d 8c3e 0c5a b1bd 04ce 8c3e
00000010: fbd7 403e c027 d2bd 30ae 113c a43e a73e
00000020: 5899 01bb c7b7 343b 171a fd3c 5616 a7bd
00000030: 95cb 7b3e ffd8 46bd ccde 5fbd 04d9 c3bd
00000040: 2ca8 16bd 5137 d7bd a9e8 503d ae04 c9bd
00000050: dc41 36bd 5828 843c 004d 78bd b6d4 66bd
00000060: e841 463d 0f3b a3bd 4bb1 e3bd e7db 263d
00000070: 798d c03e 88ef f4bd b47c bfbd 8517 fc3c
0.29200375 0.2739046 -0.08659753 0.27500927 0.1883239 -0.10261488 0.008891627 0.32664979
-0.0019775238 0.002757536 0.03089623 -0.08158557 0.24589379 -0.048546787 -0.054655835 -0.09562877
-0.036781475 -0.10508598 0.051003132 -0.09815346 -0.044496402 0.016132519 -0.060620308 -0.0563552
0.048402697 -0.07970249 -0.111178 0.04073706 0.37607935 -0.119597495 -0.09349957 0.030772934

output.weight f4 [1, 32]
00000000: dda7 57be 64fd 24be 2dcf c73c ddb7 0abe
00000010: 5db1 8dbe 0d8f c73a 145c a03d ca7b 54be
00000020: 8b6f 2b3d fb03 243e b1e9 053e f55d 25be
00000030: a493 fabd 1a92 9fbc bc50 143e ccbf f13c
00000040: 6e20 19bd f2e8 0d3e 39ba e23d 351b 49bc
00000050: 1c3f 0b3c e295 9cbb 3246 22be 62e9 0b3e
00000060: 64e8 183e 8fb9 913d fc15 ef3c 017f f23d
00000070: 5126 a8be b086 bc3c e9bf bebc 3475 2f3d
-0.21060129 -0.16112286 0.024390781 -0.13546701 -0.2767438 0.0015225128 0.078300625 -0.20750347
0.041854423 0.16017143 0.13077427 -0.16149123 -0.122351915 -0.019478846 0.14483923 0.029510401
-0.037384443 0.13858393 0.110706754 -0.012274553 0.008498933 -0.0047786096 -0.1584709 0.13663247
0.149324 0.071154706 0.029185288 0.1184063 -0.32841733 0.023013443 -0.02328487 0.042836383
