q_network_experiment_medium.pth (torch, 352624 bytes, 7 tensors)

fc1.weight f4 [128, 600]
-0.015730862 -0.040250592 -0.018643199 0.056845907 -0.0070785224 -0.06674721 0.11738416 -0.0081788935
0.034254167 0.09095024 0.022239253 0.027398761 0.03159252 -0.06515188 -0.07945582 -0.009036913
0.008235982 0.07116212 -0.01960265 -0.027572878 -0.0130953975 0.058218304 0.3356575 -0.01959545
0.051927228 -0.19470638 -0.010331411 -0.08024453 -0.020004684 -0.06073042 0.09672775 0.12116928
0.064634934 0.026850525 0.0206382 0.123631254 -0.009316148 0.071939416 -0.28685716 0.11391728
0.054698177 0.017998002 0.049406596 -0.1060054 -0.03040888 0.035980556 0.014328727 0.025911221
0.020035878 0.035234757 0.11723286 -0.06598333 0.017626764 -0.14335865 0.026779637 -0.08354357
0.08093132 -0.124405295 -0.098317474 -0.05313144 -0.08872063 -0.066993296 0.028251018 0.041448426
-0.05229935 -0.059508912 0.0006649268 0.045081872 0.05193567 -0.18471782 -0.07068447 -0.061960775
-0.15717566 0.023555098 0.016380647 0.08789558 -0.010775945 -0.14843239 -0.007930638 -0.019638853
0.0119395135 -0.15825212 -0.0562453 0.03654887 0.0137383705 -0.070642166 -0.027339166 0.012864595
-0.08278027 -0.083490476 0.13118953 0.20575559 0.031803366 0.0030604613 0.12191816 0.029940994
-0.13308121 -0.058714762 -0.18492714 -0.030398939 -0.037474986 0.030258756 0.14007737 -0.060955435
-0.044330176 0.022750923 -0.089507245 0.0033816467 0.012222106 0.062047396 0.0342818 0.11657904
-0.3375813 -0.01568174 -0.071955964 -0.053809684 -0.008716061 -0.0033439815 0.14372256 0.08037899
-0.0030538628 -0.07048445 0.14396866 -0.12801085 -0.020409416 0.02261771 -0.009623577 -0.06295956
-0.036587875 0.08114352 -0.100597814 0.026238294 0.027580088 -0.09116499 -0.024166651 -0.11616014
-0.0398825 0.0006019625 -0.01794881 0.11452828 -0.030034628 -0.02727491 -0.028163789 -0.13262019
0.077281035 -0.08217237 0.03856647 -0.1504878 0.19642192 0.1044975 0.15588248 0.011053009
-0.18883196 -0.0493857 0.13014525 0.050032422 -0.11802576 -0.08209909 -0.0267577 -0.037196364
0.10505756 -0.064136565 -0.02249267 0.09716162 0.0018035629 -0.057532344 -0.017944999 -0.038187183
0.083503135 -0.031296916 0.060232356 -0.02134971 -0.00045563755 -0.07468124 -0.050122604 -0.09730519
-0.055171255 0.044588488 -0.087041035 0.03608956 -0.026691213 0.029194372 -0.039500557 0.063613646
0.05066173 -0.034712017 -0.0081213815 0.08183627 -0.14987332 -0.022730181 0.006063487 -0.09091098
-0.06024276 -0.058516353 -0.0075097447 -0.0042069815 0.1124718 0.03423917 -0.07089478 -0.08759508
-0.114411026 -0.07535974 -0.096105315 0.13677639 -0.066905595 -0.023235738 -0.007491885 0.022396602
-0.029874282 -0.0072874133 0.0236532 0.14917965 0.07428513 0.018929623 -0.12180251 0.051698703
-0.071169 -0.0150234 0.05414529 -0.050709322 -0.02314568 -0.048458867 0.014307998 0.02562949
0.023875346 -0.052138332 -0.15378976 -0.11614018 -0.102865495 0.13362585 0.0016366025 0.07243182
0.1009123 0.03469809 -0.011275716 0.18243046 -0.0678989 0.06280719 -0.0021555447 -0.007850014
-0.0053674374 -0.13016011 0.02151821 0.12959987 -0.02547485 0.024714604 -0.000673443 0.060180716
0.056618102 0.01681035 0.2122022 0.011441764 -0.08722629 0.018133974 0.021035906 0.0055126855
00000000: 02de 80bc cedd 24bd 9fb9 98bc 41d7 683d
00000010: f3f2 e7bb c3b2 88bd 1b67 f03d c400 06bc
00000020: 194e 0c3d 1f44 ba3d 182f b63c 5e73 e03c
00000030: 2967 013d 596e 85bd bcb9 a2bd 8f0f 14bc
00000040: 36f0 063c 72bd 913d bd95 a0bc 84e0 e1bc
00000050: 148e 56bc 5176 6e3d 4ddb ab3e a386 a0bc
00000060: a5b1 543d 1c61 47be 1445 29bc 3f57 a4bd
00000070: dde0 a3bc 76c0 78bd 3319 c63d 9927 f83d
00000080: 525f 843d a2f5 db3c 7111 a93c 6232 fd3d
00000090: c2a2 18bc f954 933d f1de 92be 774d e93d
000000a0: 320b 603d 8c70 933c 925e 4a3d 5c19 d9bd
000000b0: 0b1c f9bc 5960 133d 09c3 6a3c c543 d43c
000000c0: 4822 a43c 5252 103d c817 f03d 4522 87bd
000000d0: 0166 903c 9ccc 12be f860 db3c e418 abbd
000000e0: 52bf a53d 34c8 febd ac5a c9bd 5aa0 59bd
000000f0: 29b3 b5bd c833 89bd ae6e e73c d3c5 293d
00000100: d837 56bd 9ebf 73bd 7b4e 2e3a c5a7 383d
00000110: 7fba 543d ab26 3dbe 05c3 90bd 95ca 7dbd
00000120: a8f2 20be 9ff6 c03c b530 863c 9902 b43d
00000130: 978d 30bc a9fe 17be 82ef 01bc a9e1 a0bc
00000140: f39d 433c d80c 22be 7961 66bd 45b4 153d
00000150: e716 613c d7ac 90bd 63f6 dfbc 06c6 523c
00000160: b488 a9bd 0efd aabd 8c56 063e 98b1 523e
00000170: 3f44 023d 0592 483b 3ab0 f93d d146 f53c
00000180: 7146 08be e47e 70bd 8a5d 3dbe 3207 f9bc
00000190: 5f7f 19bd 36e1 f73c 7170 0f3e 68ac 79bd
000001a0: 8f93 35bd 2560 ba3c 934f b7bd 9e9e 5d3b
000001b0: 3a3f 483c 6925 7e3d 136b 0c3d fec0 ee3d
000001c0: 75d7 acbe fe76 80bc a65d 93bd 8b67 5cbd
000001d0: cfcd 0ebc b326 5bbb 022c 133e bd9d a43d
000001e0: 5123 48bb 275a 90bd 856c 133e 4715 03be
000001f0: a631 a7bc c748 b93c 35ac 1dbc f1f0 80bd
00000200: 2bdd 15bd 932e a63d 3a06 cebd b1f1 d63c
00000210: a3ef e13c b6b4 babd 24f9 c5bc 5ee5 edbd
00000220: d55b 23bd 05cd 1d3a 6209 93bc ce8d ea3d
00000230: 2e0b f6bc a26f dfbc bfb7 e6bc 96cd 07be
00000240: 8545 9e3d fd49 a8bd e0f7 1d3d 7919 1abe
00000250: d422 493e c902 d63d a89f 1f3e ae17 353c
00000260: 2a5d 41be a948 4abd cc44 053e ccee 4c3d
00000270: 7db7 f1bd 9123 a8bd f732 dbbc 375b 18bd
00000280: 6b28 d73d 085a 83bd 8c42 b8bc acfc c63d
00000290: 8765 ec3a 09a7 6bbd 6401 93bc 2a6a 1cbd
000002a0: b103 ab3d 3231 00bd 34b6 763d 96e5 aebc
000002b0: a3e2 eeb9 7af2 98bd 5c4d 4dbd f247 c7bd
000002c0: 41fb 61bd 6ba2 363d 9242 b2bd a5d2 133d
000002d0: 88a7 dabc 0929 ef3c 56cb 21bd df47 823d
000002e0: ad82 4f3d 302e 0ebd 8b0f 05bc c699 a73d
000002f0: 6478 19be a534 babc 37b0 c63b 892f babd
00000300: 1dc1 76bd d8ae 6fbd 4e14 f6bb b8da 89bb
00000310: 9d57 e63d 5f3e 0c3d 4831 91bd 0d65 b3bd
00000320: 5450 eabd 3556 9abd ddd2 c4bd 1c0f 0c3e
00000330: cd05 89bd e058 bebc 7d7e f5bb 1479 b73c
00000340: e9ba f4bc 41cb eebb 5bc4 c13c 8dc2 183e
00000350: cd22 983d 4c12 9b3c 9873 f9bd 05c2 533d
00000360: 0dc1 91bd b524 76bc 74c7 5d3d 94b4 4fbd
00000370: 029c bdbc ce7c 46bd 186c 6a3c f0f4 d13c
00000380: 3b96 c33c 018f 55bd 107b 1dbe e7da edbd
00000390: 25ab d2bd 37d5 083e 4483 d63a 2257 943d
000003a0: 1cab ce3d 961f 0e3d c8bd 38bc 0dcf 3a3e
000003b0: 940e 8bbd 0ea1 803d 0a44 0dbb 589d 00bc
000003c0: 54e1 afbb b148 05be f546 b03c d4b5 043e
000003d0: a2b0 d0bc 4876 ca3c ff89 30ba 0e80 763d
000003e0: 62e8 673d dcb5 893c 894b 593e 3d76 3b3c
000003f0: b2a3 b2bd b38d 943c 7e53 ac3c c2a3 b43b

fc1.bias f4 [128]
-0.045617804 -0.014217945 0.2519331 -0.016644549 -0.037966233 -0.01640553 -0.04056485 -0.009931189
-0.030322082 -0.0051450403 -0.039260928 -0.043155998 -0.031761035 -0.03553648 -0.0061273784 -0.0038852757
-0.022924185 -0.011236672 -0.0072841514 -0.033044 -0.024530914 -0.03820752 -0.0067427387 -0.040199142
-0.029290024 0.030743366 -0.025653582 -0.028251996 -0.03894649 -0.019196475 -0.019461142 -0.03933601
-0.053366087 -0.020609042 -0.023392938 -0.005494184 -0.035077162 -0.030004812 -0.007210222 -0.018576587
-0.02132812 -0.0014589098 0.29374865 -0.036311887 -0.02793602 -0.027162878 -0.015381956 -0.024183655
-0.0044511924 -0.011307565 -0.018229686 -0.0050040493 -0.0057804785 -0.018959817 -0.033055298 -0.015349884
-0.020942515 -0.038255077 -0.006419629 -0.025064401 -0.028080124 -0.008932057 -0.029189099 -0.013291092
-0.018223746 -0.0077188215 -0.024197381 -0.008509973 -0.0058243237 -0.023463475 -0.030715724 -0.033429585
-0.029803192 -0.016296638 -0.023002451 -0.01640097 -0.020988146 -0.036248114 -0.022568053 -0.01823905
-0.02301548 -0.008083709 -0.015428657 -0.014690555 -0.0055116634 -0.028970545 -0.032291308 -0.006550236
-0.0069880057 -0.024691202 -0.029819492 -0.024792071 -0.02021391 -0.036804393 -0.028609335 -0.061517023
-0.027461747 -0.038756162 -0.03177191 -0.015156945 -0.041803658 -0.023904251 -0.01565294 -0.021101953
-0.025643429 -0.011966065 -0.015362811 -0.025960097 -0.010799823 -0.016457139 -0.035186466 -0.022367533
-0.0166414 -0.041668963 -0.025947988 -0.016500007 -0.022416303 -0.01941825 -0.020578524 -0.026693918
-0.014422536 -0.023782264 -0.0176879 -0.005506078 -0.0076801325 -0.01642894 -0.012563017 -0.032185387
00000000: bcd9 3abd 62f2 68bc 60fd 803e 265a 88bc
00000010: 7b82 1bbd e464 86bc 5427 26bd 6db6 22bc
00000020: 0466 f8bc ba97 a8bb 11d0 20bd 58c4 30bd
00000030: dc17 02bd b38e 11bd 2dc8 c8bb 1ca0 7ebb
00000040: 80cb bbbc 051a 38bc e4af eebb 2559 07bd
00000050: 0ef5 c8bc 7d7f 1cbd 31f2 dcbb dba7 24bd
00000060: a2f1 efbc 83d9 fb3c 7627 d2bc bb70 e7bc
00000070: 5b86 1fbd ed41 9dbc f96c 9fbc cc1e 21bd
00000080: 6696 5abd 4bd4 a8bc 8ca2 bfbc 8e08 b4bb
00000090: 12ad 0fbd a7cc f5bc ba43 ecbb ed2d 98bc
000000a0: 4fb8 aebc e438 bfba 3966 963e c6bb 14bd
000000b0: 15da e4bc af84 debc 9904 7cbc cd1c c6bc
000000c0: 4fdb 91bb 5d43 39bc 6c56 95bc 02f9 a3bb
000000d0: 2b6a bdbb 9e51 9bbc fe64 07bd 147e 7bbc
000000e0: a38f abbc 5bb1 1cbd c05b d2bb dc53 cdbc
000000f0: 4a08 e6bc c357 12bc fa1d efbc e1c2 59bc
00000100: f749 95bc 2bee fcbb 9639 c6bc 6a6d 0bbc
00000110: f8d9 bebb 7936 c0bc 8b9f fbbc 76ed 08bd
00000120: d325 f4bc 8780 85bc a36f bcbc 545b 86bc
00000130: 55ef abbc e778 14bd a3e0 b8bc 0f6a 95bc
00000140: f68a bcbc 8871 04bc 7ac8 7cbc a7b0 70bc
00000150: 2f9b b4bb a353 edbc e443 04bd 5da3 d6bb
00000160: a4fb e4bb 3445 cabc 0248 f4bc be18 cbbc
00000170: a497 a5bc 34c0 16bd 205e eabc 46f9 7bbd
00000180: 75f7 e0bc c8be 1ebd 4323 02bd d654 78bc
00000190: 503a 2bbd d9d2 c3bc 983a 80bc 01de acbc
000001a0: 2b12 d2bc 500d 44bc 4db4 7bbc 45aa d4bc
000001b0: bef1 30bc 1fd1 86bc af1f 10bd 1e3c b7bc
000001c0: 8c53 88bc 13ad 2abd e090 d4bc 062b 87bc
000001d0: 65a2 b7bc 0613 9fbc 4b94 a8bc 34ad dabc
000001e0: 804c 6cbc 06d3 c2bc 37e6 90bc 546c b4bb
000001f0: 9fa9 fbbb fc95 86bc 1dd5 4dbc d3d4 03bd

fc2.weight f4 [64, 128]
-0.118288055 -0.079108074 -0.03986799 0.023658264 -0.0039590956 -0.051606793 -0.073304705 0.045731757
-0.029123144 0.0034372755 -0.011450583 -0.065902814 0.066831864 0.024963979 -0.04511008 -0.08073734
-0.094385535 -0.070273764 0.09789147 -0.11795228 -0.05368911 0.016152905 -0.011186511 -0.0027314003
-0.059095528 -0.06930661 0.067810066 0.06565699 0.045749012 0.021125833 -0.07925238 0.04763799
-0.033903692 -0.021511199 0.024307182 0.06505635 0.024890821 -0.13590157 0.074115284 -0.0006781115
-0.13039221 -0.05589258 -0.0341977 0.031876124 -0.031998932 -0.065794386 0.059370395 -0.031182924
0.043533254 -0.11751089 0.02264917 0.100442134 0.053081553 0.026406167 0.05948583 0.037497323
-0.010820929 -0.004097854 -0.028188065 0.026820136 -0.097994454 0.002045787 -0.009642223 0.003085244
-0.10106137 -0.05183462 -0.03186725 -0.025280597 -0.039945483 -0.07519454 -0.08195424 -0.12141119
-0.11505515 -0.07551353 -0.10442126 0.049012665 -0.06683586 0.030500673 -0.054389283 0.081466824
0.06962572 -0.005337782 0.011549932 -0.06371585 -0.0006517167 0.032793492 0.038373083 0.06804585
0.08499359 -0.02231407 -0.08077555 0.01349589 0.027603589 -0.0066738795 -0.07070985 -0.02943482
-0.024056798 0.012212734 -0.047782123 -0.027502252 -0.0275651 -0.043704595 -0.08410296 0.041785553
-0.028586553 -0.013046999 -0.030989565 -0.06677756 -0.07487245 -0.12863575 0.027904911 -0.07066597
-0.12357899 0.044664335 0.017493587 -0.0206809 -0.009447951 -0.044047985 0.004733615 -0.051566884
0.011286083 0.048929162 0.023371553 -0.0041918415 -0.071503796 0.0044467454 0.05272757 0.0114292875
0.2511746 -0.0059716394 0.2233045 -0.12020516 -0.0038102015 -0.018758887 -0.05562995 -0.03675121
0.17238727 -0.077306084 0.031566758 0.035198826 0.08363515 -0.07281578 -0.023108423 0.07717332
-0.06076627 0.036580417 0.029566191 -0.10190913 0.0711523 -0.029803975 -0.070646174 -0.0328245
0.054889925 0.349094 -0.03307478 -0.05925323 -0.051753968 0.04605601 0.06994989 0.041079994
-0.059061166 -0.016299913 -0.074532904 -0.06716898 0.0546611 0.024567679 -0.03985384 0.032629296
-0.113066286 -0.052361105 0.38943255 -0.018247299 -0.10054126 -0.04845306 0.013527559 -0.005153706
-0.032850236 -0.050835554 0.5733372 -0.003429563 -0.08871049 -0.12489071 0.065209374 0.02329313
0.04510251 -0.07091932 0.025054667 -0.05110554 -0.04383389 -0.0154377585 -0.114904 0.015060407
-0.020194916 0.060846686 -0.0427403 -0.01777617 0.013179113 -0.04053389 -0.0052064206 -0.058172803
0.19723 -0.100867346 0.004099002 0.0296001 0.17151515 -0.017410178 -0.11428746 -0.0038973505
-0.04190934 0.013362047 -0.0067456425 -0.061677422 0.056540545 0.05342797 -0.048626956 0.020671416
-0.068320274 -0.03291101 -0.009931704 -0.113931425 0.009474759 0.040969316 0.047614206 -0.005625624
-0.114103295 -0.005016107 -0.047847345 0.032684702 0.059280455 -0.08221407 -0.027029522 -0.029749626
0.011646198 0.014684636 0.08438038 -0.013907944 -0.038581457 -0.084645666 0.01555559 0.25907484
0.019117165 -0.024070658 0.012910348 -0.04384132 0.030263089 -0.1275753 -0.041342877 0.015794711
0.034753397 0.0111445645 -0.093066834 -0.003627763 0.009252646 -0.020811418 0.061664633 0.05653991
00000000: 0241 f2bd 6a03 a2bd 9e4c 23bd face c13c
00000010: 4dbb 81bb a561 53bd c720 96bd 3951 3b3d
00000020: a993 eebc ea43 613b 3a9b 3bbc 0ef8 86bd
00000030: 25df 883d 4281 cc3c 59c5 38bd 9e59 a5bd
00000040: 344d c1bd b1eb 8fbd 537b c83d f790 f1bd
00000050: 1de9 5bbd 1953 843c a147 37bc 4b01 33bb
00000060: 270e 72bd a0f0 8dbd 01e0 8a3d 2c77 863d
00000070: 5163 3b3d 1510 ad3c 124f a2bd 0e20 433d
00000080: 99de 0abd 4138 b0bc db1f c73c 433c 853d
00000090: d6e7 cb3c c829 0bbe c1c9 973d 4bc3 31ba
000000a0: 8985 05be 9eef 64bd e312 0cbd 8a90 023d
000000b0: 5011 03bd 35bf 86bd 5f2e 733d 5573 ffbc
000000c0: ed4f 323d 8da9 f0bd c18a b93c 9bb4 cd3d
000000d0: 0b6c 593d bf51 d83c 6aa7 733d cb96 193d
000000e0: 444a 31bc 4a47 86bb a8ea e6bc e7b5 db3c
000000f0: 51b1 c8bd 9c12 063b 6afa 1dbc ce31 4a3b
00000100: 43f9 cebd 8a50 54bd 3c87 02bd 4119 cfbc
00000110: e09d 23bd 98ff 99bd a0d7 a7bd 6ea6 f8bd
00000120: 09a2 ebbd d6a6 9abd d0da d5bd 81c1 483d
00000130: 3de1 88bd 8cdc f93c 4cc7 5ebd 14d8 a63d
00000140: ee97 8e3d 90e8 aebb ed3b 3d3c 757d 82bd
00000150: f8d7 2aba 7852 063d 182d 1d3d 9f5b 8b3d
00000160: 1f11 ae3d ffcb b6bc a76d a5bd de1d 5d3c
00000170: ec20 e23c 8fb0 dabb 53d0 90bd 4b21 f1bc
00000180: c312 c5bc eb17 483c 30b7 43bd 674c e1bc
00000190: 34d0 e1bc 9703 33bd 2c3e acbd 5427 2b3d
000001a0: 592e eabc 15c3 55bc d4dd fdbc acc2 88bd
000001b0: ba56 99bd 17b9 03be d798 e43c 52b9 90bd
000001c0: fb16 fdbd f3f1 363d b64e 8f3c fe6a a9bc
000001d0: 94cb 1abc a96b 34bd 711c 9b3b cc37 53bd
000001e0: 43e9 383c f269 483d b375 bf3c b75b 89bb
000001f0: 9570 92bd 01b6 913b ddf8 573d e841 3b3c
00000200: f599 803e bead c3bb efa9 643e 1f2e f6bd
00000210: 93b4 79bb 3dac 99bc 3bdc 63bd 7088 16bd
00000220: 4a86 303e a752 9ebd 254c 013d a52c 103d
00000230: e848 ab3d 7120 95bd e04d bdbc 0c0d 9e3d
00000240: 0de6 78bd 59d5 153d cc34 f23c bcb5 d0bd
00000250: 4cb8 913d 7727 f4bc f1ae 90bd fc72 06bd
00000260: 42d4 603d 73bc b23e 6c79 07bd 84b3 72bd
00000270: f8fb 53bd 3aa5 3c3d e341 8f3d 7f43 283d
00000280: 1fea 71bd 6587 85bc b5a4 98bd e48f 89bd
00000290: 51e4 5f3d 2842 c93c c83d 23bd 4ca6 053d
000002a0: 4c8f e7bd 9978 56bd b463 c73e 5c7b 95bc
000002b0: 93e8 cdbd b776 46bd b2a2 5d3c 6be0 a8bb
000002c0: f88d 06bd f138 50bd 3ac6 123f 85c2 60bb
000002d0: d8ad b5bd b3c6 ffbd 7e8c 853d 3cd1 be3c
000002e0: 69bd 383d 263e 91bd 723f cd3c 0b54 51bd
000002f0: 2a8b 33bd a7ee 7cbc ca52 ebbd edbf 763c
00000300: cf6f a5bc 603a 793d 7410 2fbd 559f 91bc
00000310: 35ed 573c dd06 26bd 9f9a aabb 9b46 6ebd
00000320: a9f6 493e 8a93 cebd ec50 863b e97b f23c
00000330: aba1 2f3e ca9f 8ebc 8b0f eabd b16a 7fbb
00000340: 21a9 2bbd 7dec 5a3c 8d0a ddbb 77a1 7cbd
00000350: 0f97 673d 49d7 5a3d 0f2d 47bd 1a57 a93c
00000360: 80eb 8bbd b2cd 06bd 96b8 22bc e154 e9bd
00000370: 053c 1b3c 71cf 273d 1d07 433d 2857 b8bb
00000380: fdae e9bd 285e a4bb 94fb 43bd 65e0 053d
00000390: 10d0 723d da5f a8bd 046d ddbc 7db5 f3bc
000003a0: b2cf 3e3c d497 703c 9fcf ac3d 25de 63bc
000003b0: 9707 1ebd b55a adbd e0dc 7e3c 75a5 843e
000003c0: 9a9b 9c3c d42f c5bc ed85 533c f592 33bd
000003d0: 4cea f73c 19a3 02be 2657 29bd e963 813c
000003e0: 9459 0e3d b197 363c d399 bebd c3bf 6dbb
000003f0: 6998 173c b57c aabc 0e94 7c3d 6596 673d

fc2.bias f4 [64]
-0.0034272138 0.18997875 -0.029233383 -0.040510602 -0.07172216 -0.037956722 -0.043912433 -0.06777461
-0.04838078 -0.025173517 -0.06832167 -0.05482404 -0.0411793 -0.0590116 -0.047426876 -0.032193545
-0.029123401 -0.061937656 -0.0033974017 -0.018490776 -0.024336724 0.4155416 -0.062390402 -0.027437823
-0.05052824 -0.08095228 -0.037078667 -0.07216397 -0.017990822 -0.011128379 -0.0643378 -0.05798679
-0.01637355 -0.0779181 -0.018534737 -0.0069428594 -0.037549254 -0.03395022 -0.037651964 -0.046073515
0.20584568 -0.059681833 -0.047892865 -0.045256786 -0.040061727 -0.06037378 -0.07723626 -0.07096105
-0.048693392 -0.0424661 -0.08863679 -0.027707528 0.15424404 0.049518906 -0.0013168283 -0.007238982
-0.040869586 -0.012767702 -0.035869267 -0.05703569 -0.08359942 -0.04473229 -0.011682406 -0.03749066
00000000: 1b9b 60bb ca89 423e d97a efbc 72ee 25bd
00000010: 11e3 92bd 8278 1bbd 86dd 33bd 6acd 8abd
00000020: ed2a 46bd b138 cebc 3bec 8bbd 2c8f 60bd
00000030: a0ab 28bd 26b6 71bd af42 42bd 61dd 03bd
00000040: 3394 eebc 57b2 7dbd f1a6 5ebb f879 97bc
00000050: cf5d c7bc dec1 d43e 148d 7fbd 49c5 e0bc
00000060: b3f6 4ebd 4fca a5bd cddf 17bd b4ca 93bd
00000070: 7d61 93bc ce53 36bc 89c3 83bd 8e83 6dbd
00000080: d321 86bc 8693 9fbd 29d6 97bc ed80 e3bb
00000090: 3fcd 19bd 630f 0bbd f238 1abd 95b7 3cbd
000000a0: 36c9 523e f074 74bd 4f2b 44bd 2e5f 39bd
000000b0: c417 24bd 7f4a 77bd 0b2e 9ebd 0754 91bd
000000c0: b972 47bd eff0 2dbd 3587 b5bd e6fa e2bc
000000d0: 26f2 1d3e 56d4 4a3d 6d99 acba fb34 edbb
000000e0: de66 27bd a02f 51bc a7eb 12bd 419e 69bd
000000f0: 2c36 abbd 3539 37bd 9067 3fbc ce8f 19bd

fc3.weight f4 [32, 64]
-0.09279124 0.013656652 0.14058259 0.06514041 0.077886075 0.054356787 0.08548337 0.12731062
0.2268903 -0.051801294 -0.06822965 0.22885138 0.19018872 0.09969713 0.18928425 0.016978573
0.031464536 -0.06917107 0.07245158 0.5919709 0.04141652 0.41152093 0.09978567 0.08627705
0.15274025 0.078011766 -0.088901415 0.0011781305 0.08727241 -0.0005802168 -0.08738463 0.09111878
-0.08453692 -0.1043874 -0.092682734 0.038849033 0.17724131 0.14425087 0.08972323 0.2033349
0.124190986 0.056409076 0.016137108 0.17568256 0.08671747 -0.07577036 -0.042874932 -0.014324836
-0.081969306 0.048417542 -0.30322194 0.10120593 0.3291249 0.6927675 -0.049404673 -0.012327542
-0.120924726 0.03710407 -0.007330463 0.09660189 -0.006447166 0.1926821 -0.00989666 -0.087973244
-0.1005337 -0.0785382 -0.061585743 -0.036283016 0.013929188 -0.10476624 0.080079734 -0.06314063
0.06800271 0.12366411 0.030238554 0.039348375 -0.0037791627 0.037621334 -0.10355148 0.09515808
-0.00581319 0.080025524 0.10226299 0.08296168 0.05120877 0.07835055 -0.060755715 0.097712606
0.07642489 -0.07827771 -0.11621917 -0.114564255 -0.055188373 0.009221374 -0.12620899 -0.11797249
0.011137649 -0.10416325 0.011688094 0.040357396 -0.026283845 0.04543186 0.05869913 -0.08371183
0.032117747 0.11524953 0.034063697 0.064680904 0.041201763 -0.044958662 -0.016341478 -0.03360124
0.12174423 -0.053366065 -0.013499157 0.06149307 -0.07763887 0.07988561 -0.030227587 0.05109356
0.020667687 0.03389819 0.07253204 0.015306681 0.11599684 -0.013069895 -0.060692713 -0.1282674
0.027625319 -0.08503146 -0.052421223 -0.05069627 -0.06365766 0.03941714 -0.012491375 0.006363362
-0.115423806 0.03302802 0.033699073 -0.06769623 0.06639974 0.05840162 0.02478544 -0.01924232
0.039751202 -0.09406912 0.00054469286 0.042912453 -0.13686152 -0.149509 0.08728811 -0.056017935
-0.13509825 -0.065391384 0.005745931 0.024517909 -0.08557674 -0.02092382 0.016098212 0.11521773
-0.047028463 -0.09288165 -0.14650235 0.072903216 -0.023691716 -0.16737619 -0.13692054 0.06222984
0.0304548 0.042799428 -0.083290204 -0.10469812 0.103212625 0.030391753 -0.02632767 0.0452895
0.12142539 0.081293404 0.08633476 0.000620842 0.091520354 -0.07990661 0.0854182 -0.12738515
-0.088489085 -0.008546248 0.11841495 -0.028579503 -0.10248557 -0.027755473 -0.06755921 -0.13252273
0.07927054 0.039365564 0.11934741 0.03615734 0.04626192 -0.06688705 0.044296414 0.01010184
-0.07744637 0.0022827238 0.08871081 -0.09488478 -0.12200025 0.0066609085 0.015055403 -0.08110013
-0.12183206 -0.090190336 0.09572843 -0.004546687 0.042419195 0.06741077 -0.12379803 0.035665244
0.10382761 -0.108422615 -0.013649712 0.06382553 -0.06663732 -0.0875604 -0.13187753 -0.0695627
0.118062586 0.04524185 -0.022562683 0.120366156 -0.11428709 -0.11930144 0.052410133 -0.046447843
0.005560784 0.058511242 -0.06932908 -0.093018204 -0.04946807 -0.07694779 0.0960805 -0.05672723
-0.08714552 -0.072543725 -0.09098962 -0.017344147 -0.021980837 -0.116651714 0.10577966 -0.03229919
0.09237859 -0.09688887 0.03996995 0.11414179 -0.11453408 0.10161893 -0.04968609 0.018092722
00000000: 5509 bebd 26c0 5f3c e2f4 0f3e 5668 853d
00000010: bc82 9f3d 39a5 5e3d e811 af3d b75d 023e
00000020: ee55 683e 982d 54bd fdbb 8bbd 0458 6a3e
00000030: d5c0 423e 022e cc3d bbd3 413e a616 8b3c
00000040: f5e0 003d 90a9 8dbd 7e61 943d 688b 173f
00000050: 5ea4 293d dfb2 d23e 6e5c cc3d 06b2 b03d
00000060: f167 1c3e a2c4 9f3d f211 b6bd 806b 9a3a
00000070: e1bb b23d b119 18ba b7f6 b2bd 7c9c ba3d
00000080: b121 adbd 10c9 d5bd 72d0 bdbd 2a20 1f3d
00000090: bf7e 353e 80b6 133e d0c0 b73d 0637 503e
000000a0: d857 fe3d 340d 673d f831 843c 21e6 333e
000000b0: ee98 b13d 7e2d 9bbd a09d 2fbd b8b2 6abc
000000c0: 86df a7bd 7951 463d e83f 9bbe 0e45 cf3d
000000d0: 0f83 a83e 3659 313f 8e5c 4abd 75f9 49bc
000000e0: 62a7 f7bd 70fa 173d 6134 f0bb 36d7 c53d
000000f0: c042 d3bb 754e 453e 9a25 22bc 512b b4bd
00000100: 9de4 cdbd a3d8 a0bd 5541 7cbd 809d 14bd
00000110: 4037 643c af8f d6bd d800 a43d e04f 81bd
00000120: 0145 8b3d 9c43 fd3d d8b6 f73c c32b 213d
00000130: d4ab 77bb d418 1a3d cc12 d4bd 3de2 c23d
00000140: 927c bebb 6ce4 a33d 426f d13d d0e7 a93d
00000150: 4ac0 513d 4176 a03d fcda 78bd 8c1d c83d
00000160: a784 9c3d 1050 a0bd 5104 eebd aaa0 eabd
00000170: 340d 62bd 3f15 173c ee3c 01be 909b f1bd
00000180: b07a 363c 8b53 d5bd 6b7f 3f3c cc4d 253d
00000190: 3851 d7bc c216 3a3d 806e 703d 1c71 abbd
000001a0: e68d 033d f207 ec3d 6086 0b3d 6c77 843d
000001b0: 2ec3 283d 9326 38bd 90de 85bc 74a1 09bd
000001c0: 0a55 f93d 6096 5abd 912b 5dbc 28e0 7b3d
000001d0: 2101 9fbd 119b a33d d89f f7bc 7b47 513d
000001e0: 484f a93c d4d8 0a3d ae8b 943d e0c8 7a3c
000001f0: c08f ed3d 1d23 56bc ec98 78bd 8858 03be
00000200: 7e4e e23c f924 aebd a3b7 56bd e4a6 4fbd
00000210: f25e 82bd de73 213d a0a8 4cbc c083 d03b
00000220: 5163 ecbd 6448 073d 0a08 0a3d 52a4 8abd
00000230: 96fc 873d 8936 6f3d d60a cb3c 12a2 9dbc
00000240: 28d2 223d 50a7 c0bd b8c9 0e3a f8c4 2f3d
00000250: 6d25 0cbe e318 19be 1cc4 b23d 1073 65bd
00000260: 3257 0abe ebeb 85bd 5d48 bc3b c8d9 c83c
00000270: dc42 afbd 6e68 abbc 66e0 833c 46f7 eb3d
00000280: eba0 40bd bc38 bebd b604 16be 484e 953d
00000290: 2115 c2bc aa64 2bbe e634 0cbe b7e4 7e3d
000002a0: 587c f93c 744e 2f3d 0e94 aabd f86b d6bd
000002b0: 2461 d33d 20f8 f83c 20ad d7bc 7c81 393d
000002c0: e0ad f83d 287d a63d 47d0 b03d 00c0 223a
000002d0: 066f bb3d 14a6 a3bd bdef ae3d 4171 02be
000002e0: c439 b5bd 9005 0cbc 8a83 f23d 901f eabc
000002f0: f4e3 d1bd 725f e3bc 7c5c 8abd 0ab4 07be
00000300: 9858 a23d c93d 213d 6a6c f43d b819 143d
00000310: 247d 3d3d 14fc 88bd 2870 353d 3082 253c
00000320: 349c 9ebd c099 153b 03ae b53d f452 c2bd
00000330: 44db f9bd c043 da3b f0aa 763c d317 a6bd
00000340: 1683 f9bd b6b5 b8bd 440d c43d 60fc 94bb
00000350: c0bf 2d3d a80e 8a3d d289 fdbd b815 123d
00000360: 92a3 d43d ad0c debd 0ba3 5fbc f6b6 823d
00000370: 2679 88bd de52 b3bd e70a 07be e476 8ebd
00000380: ccca f13d 854f 393d 60d5 b8bc 8882 f63d
00000390: 5a0f eabd 5054 f4bd 02ac 563d 1840 3ebd
000003a0: 3d37 b63b 7ca9 6f3d 68fc 8dbd 5480 bebd
000003b0: 089f 4abd ce96 9dbd dac5 c43d d05a 68bd
000003c0: 5a79 b2bd ce91 94bd c458 babd 5015 8ebc
000003d0: 2811 b4bc 18e7 eebd 02a3 d83d 284c 04bd
000003e0: fc30 bd3d ac6d c6bd 88b7 233d 2cc3 e93d
000003f0: d890 eabd 961d d03d a483 4bbd 3037 943c

fc3.bias f4 [32]
0.31122825 -0.124738716 0.010030667 -0.12379893 -0.2090261 -0.34547934 -0.19901727 -0.059540793
-0.046250116 0.13325588 -0.023953794 -0.050362285 0.020653464 -0.09484551 -0.2751457 -0.31190667
-0.009069086 -0.07800421 -0.14839037 0.004340092 0.5024867 -0.28656146 -0.0041080443 -0.03830211
-0.019299641 -0.02236258 0.19474882 -0.10462895 -0.00032310272 -0.097252496 -0.15303378 -0.09590878
00000000: 4f59 9f3e 0377 ffbd ab57 243c 4b8a fdbd
00000010: f00a 56be abe2 b0be 2fcb 4bbe 0ce1 73bd
00000020: c370 3dbd 3b74 083e bf3a c4bc af48 4ebd
00000030: 7431 a93c 5d3e c2bd e6df 8cbe 3bb2 9fbe
00000040: 8196 14bc acc0 9fbd a5f3 17be 5537 8e3b
00000050: f8a2 003f 2fb8 92be c69c 86bb ace2 1cbd
00000060: 481a 9ebc bb31 b7bc 3c6c 473e b447 d6bd
00000070: 1d66 a9b9 512c c7bd e3b4 1cbe d36b c4bd

output.weight f4 [1, 32]
-0.17575449 -0.032188315 0.06770991 0.018300155 0.009232031 -0.009748237 -0.014616207 0.11937973
0.0054970374 0.17859016 0.039534878 0.03424907 0.06009041 0.019460272 -0.009773728 -0.00052879506
-0.020465543 0.017620776 0.0044444106 0.12742096 -0.2755537 -0.018284593 -0.073006496 0.12742925
-0.09989783 -0.018412083 -0.23639326 0.049318276 0.040396098 0.047187224 -0.07278478 0.120572284
00000000: fcf8 33be e5d7 03bd 7eab 8a3d 35ea 953c
00000010: f241 173c 12b7 1fbc d178 6fbc 5c7d f43d
00000020: 7e20 b43b 57e0 363e 53ef 213d c148 0c3d
00000030: 5d21 763d 266b 9f3c fd21 20bc d69e 0aba
00000040: 5ba7 a7bc 7259 903c 6ba2 913b a47a 023e
00000050: 6015 8dbe 92c9 95bc 6e84 95bd d07c 023e
00000060: 3c97 ccbd f0d4 96bc 1311 72be f601 4a3d
00000070: 6176 253d 6447 413d 3010 95bd 9aee f63d
